…
[2023-02-21 17:48:33,321][torch_points3d.trainer][INFO] - MVAttentionAPIModel(
  (backbone): MVAttentionSparseConv3dUnet(
    (inner_modules): ModuleList(
      (0): Identity()
    )
    (down_modules): ModuleList(
      (0): MultimodalBlockDown(
        (block_1): Identity()
        (block_2): Identity()
        (image): MVAttentionUnimodalBranch(
          drop_3d=None
          drop_mod=None
          keep_last_view=False
          checkpointing=
          (attn_fusion): DeepSetFeat_ViewFusion(
            pool=['max']
            fusion=concatenation
            use_num=True
            (mlp_elt_1): Sequential(
              (0): Sequential(
                (0): Linear(in_features=28, out_features=32, bias=False)
                (1): FastBatchNorm1d(
                  (batch_norm): BatchNorm1d(32, eps=1e-05, momentum=0.1, affine=True, track_running_stats=True)
                )
                (2): LeakyReLU(negative_slope=0.2, inplace=True)
              )
              (1): Sequential(
                (0): Linear(in_features=32, out_features=32, bias=False)
                (1): FastBatchNorm1d(
                  (batch_norm): BatchNorm1d(32, eps=1e-05, momentum=0.1, affine=True, track_running_stats=True)
                )
                (2): LeakyReLU(negative_slope=0.2, inplace=True)
              )
            )
            (mlp_set): Sequential(
              (0): Sequential(
                (0): Linear(in_features=33, out_features=32, bias=False)
                (1): FastBatchNorm1d(
                  (batch_norm): BatchNorm1d(32, eps=1e-05, momentum=0.1, affine=True, track_running_stats=True)
                )
                (2): LeakyReLU(negative_slope=0.2, inplace=True)
              )
              (1): Sequential(
                (0): Linear(in_features=32, out_features=32, bias=False)
                (1): FastBatchNorm1d(
                  (batch_norm): BatchNorm1d(32, eps=1e-05, momentum=0.1, affine=True, track_running_stats=True)
                )
                (2): LeakyReLU(negative_slope=0.2, inplace=True)
              )
            )
            (mlp_elt_2): Sequential(
              (0): Sequential(
                (0): Linear(in_features=64, out_features=32, bias=False)
                (1): FastBatchNorm1d(
                  (batch_norm): BatchNorm1d(32, eps=1e-05, momentum=0.1, affine=True, track_running_stats=True)
                )
                (2): LeakyReLU(negative_slope=0.2, inplace=True)
              )
              (1): Sequential(
                (0): Linear(in_features=32, out_features=32, bias=False)
                (1): FastBatchNorm1d(
                  (batch_norm): BatchNorm1d(32, eps=1e-05, momentum=0.1, affine=True, track_running_stats=True)
                )
                (2): LeakyReLU(negative_slope=0.2, inplace=True)
              )
            )
            (E_score): Linear(in_features=32, out_features=32, bias=True)
          )
          (fusion): BimodalFusion(mode=concatenation)
        )
      )
      (1): MultimodalBlockDown(
        (block_1): ResNetDown(
          (conv_in): Seq(
            (0): Conv3d(in_channels=35, out_channels=64, kernel_size=3, stride=1, dilation=1)
            (1): BatchNorm(64, eps=1e-05, momentum=0.1, affine=True, track_running_stats=True)
            (2): ReLU(inplace=True)
          )
        )
        (block_2): Identity()
        (image): IdentityBranch()
      )
      (2): MultimodalBlockDown(
        (block_1): ResNetDown(
          (conv_in): Seq(
            (0): Conv3d(in_channels=64, out_channels=64, kernel_size=2, stride=2, dilation=1)
            (1): BatchNorm(64, eps=1e-05, momentum=0.1, affine=True, track_running_stats=True)
            (2): ReLU(inplace=True)
          )
          (blocks): Seq(
            (0): ResBlock(
              (block): Seq(
                (0): Conv3d(in_channels=64, out_channels=32, kernel_size=3, stride=1, dilation=1)
                (1): BatchNorm(32, eps=1e-05, momentum=0.1, affine=True, track_running_stats=True)
                (2): ReLU(inplace=True)
                (3): Conv3d(in_channels=32, out_channels=32, kernel_size=3, stride=1, dilation=1)
                (4): BatchNorm(32, eps=1e-05, momentum=0.1, affine=True, track_running_stats=True)
                (5): ReLU(inplace=True)
              )
              (downsample): Seq(
                (0): Conv3d(in_channels=64, out_channels=32, kernel_size=1, stride=1, dilation=1)
                (1): BatchNorm(32, eps=1e-05, momentum=0.1, affine=True, track_running_stats=True)
              )
            )
            (1): ResBlock(
              (block): Seq(
                (0): Conv3d(in_channels=32, out_channels=32, kernel_size=3, stride=1, dilation=1)
                (1): BatchNorm(32, eps=1e-05, momentum=0.1, affine=True, track_running_stats=True)
                (2): ReLU(inplace=True)
                (3): Conv3d(in_channels=32, out_channels=32, kernel_size=3, stride=1, dilation=1)
                (4): BatchNorm(32, eps=1e-05, momentum=0.1, affine=True, track_running_stats=True)
                (5): ReLU(inplace=True)
              )
            )
          )
        )
        (block_2): Identity()
        (image): IdentityBranch()
      )
      (3): MultimodalBlockDown(
        (block_1): ResNetDown(
          (conv_in): Seq(
            (0): Conv3d(in_channels=32, out_channels=32, kernel_size=2, stride=2, dilation=1)
            (1): BatchNorm(32, eps=1e-05, momentum=0.1, affine=True, track_running_stats=True)
            (2): ReLU(inplace=True)
          )
          (blocks): Seq(
            (0): ResBlock(
              (block): Seq(
                (0): Conv3d(in_channels=32, out_channels=64, kernel_size=3, stride=1, dilation=1)
                (1): BatchNorm(64, eps=1e-05, momentum=0.1, affine=True, track_running_stats=True)
                (2): ReLU(inplace=True)
                (3): Conv3d(in_channels=64, out_channels=64, kernel_size=3, stride=1, dilation=1)
                (4): BatchNorm(64, eps=1e-05, momentum=0.1, affine=True, track_running_stats=True)
                (5): ReLU(inplace=True)
              )
              (downsample): Seq(
                (0): Conv3d(in_channels=32, out_channels=64, kernel_size=1, stride=1, dilation=1)
                (1): BatchNorm(64, eps=1e-05, momentum=0.1, affine=True, track_running_stats=True)
              )
            )
            (1): ResBlock(
              (block): Seq(
                (0): Conv3d(in_channels=64, out_channels=64, kernel_size=3, stride=1, dilation=1)
                (1): BatchNorm(64, eps=1e-05, momentum=0.1, affine=True, track_running_stats=True)
                (2): ReLU(inplace=True)
                (3): Conv3d(in_channels=64, out_channels=64, kernel_size=3, stride=1, dilation=1)
                (4): BatchNorm(64, eps=1e-05, momentum=0.1, affine=True, track_running_stats=True)
                (5): ReLU(inplace=True)
              )
            )
            (2): ResBlock(
              (block): Seq(
                (0): Conv3d(in_channels=64, out_channels=64, kernel_size=3, stride=1, dilation=1)
                (1): BatchNorm(64, eps=1e-05, momentum=0.1, affine=True, track_running_stats=True)
                (2): ReLU(inplace=True)
                (3): Conv3d(in_channels=64, out_channels=64, kernel_size=3, stride=1, dilation=1)
                (4): BatchNorm(64, eps=1e-05, momentum=0.1, affine=True, track_running_stats=True)
                (5): ReLU(inplace=True)
              )
            )
          )
        )
        (block_2): Identity()
        (image): IdentityBranch()
      )
      (4): MultimodalBlockDown(
        (block_1): ResNetDown(
          (conv_in): Seq(
            (0): Conv3d(in_channels=64, out_channels=64, kernel_size=2, stride=2, dilation=1)
            (1): BatchNorm(64, eps=1e-05, momentum=0.1, affine=True, track_running_stats=True)
            (2): ReLU(inplace=True)
          )
          (blocks): Seq(
            (0): ResBlock(
              (block): Seq(
                (0): Conv3d(in_channels=64, out_channels=128, kernel_size=3, stride=1, dilation=1)
                (1): BatchNorm(128, eps=1e-05, momentum=0.1, affine=True, track_running_stats=True)
                (2): ReLU(inplace=True)
                (3): Conv3d(in_channels=128, out_channels=128, kernel_size=3, stride=1, dilation=1)
                (4): BatchNorm(128, eps=1e-05, momentum=0.1, affine=True, track_running_stats=True)
                (5): ReLU(inplace=True)
              )
              (downsample): Seq(
                (0): Conv3d(in_channels=64, out_channels=128, kernel_size=1, stride=1, dilation=1)
                (1): BatchNorm(128, eps=1e-05, momentum=0.1, affine=True, track_running_stats=True)
              )
            )
            (1): ResBlock(
              (block): Seq(
                (0): Conv3d(in_channels=128, out_channels=128, kernel_size=3, stride=1, dilation=1)
                (1): BatchNorm(128, eps=1e-05, momentum=0.1, affine=True, track_running_stats=True)
                (2): ReLU(inplace=True)
                (3): Conv3d(in_channels=128, out_channels=128, kernel_size=3, stride=1, dilation=1)
                (4): BatchNorm(128, eps=1e-05, momentum=0.1, affine=True, track_running_stats=True)
                (5): ReLU(inplace=True)
              )
            )
            (2): ResBlock(
              (block): Seq(
                (0): Conv3d(in_channels=128, out_channels=128, kernel_size=3, stride=1, dilation=1)
                (1): BatchNorm(128, eps=1e-05, momentum=0.1, affine=True, track_running_stats=True)
                (2): ReLU(inplace=True)
                (3): Conv3d(in_channels=128, out_channels=128, kernel_size=3, stride=1, dilation=1)
                (4): BatchNorm(128, eps=1e-05, momentum=0.1, affine=True, track_running_stats=True)
                (5): ReLU(inplace=True)
              )
            )
            (3): ResBlock(
              (block): Seq(
                (0): Conv3d(in_channels=128, out_channels=128, kernel_size=3, stride=1, dilation=1)
                (1): BatchNorm(128, eps=1e-05, momentum=0.1, affine=True, track_running_stats=True)
                (2): ReLU(inplace=True)
                (3): Conv3d(in_channels=128, out_channels=128, kernel_size=3, stride=1, dilation=1)
                (4): BatchNorm(128, eps=1e-05, momentum=0.1, affine=True, track_running_stats=True)
                (5): ReLU(inplace=True)
              )
            )
          )
        )
        (block_2): Identity()
        (image): IdentityBranch()
      )
      (5): MultimodalBlockDown(
        (block_1): ResNetDown(
          (conv_in): Seq(
            (0): Conv3d(in_channels=128, out_channels=128, kernel_size=2, stride=2, dilation=1)
            (1): BatchNorm(128, eps=1e-05, momentum=0.1, affine=True, track_running_stats=True)
            (2): ReLU(inplace=True)
          )
          (blocks): Seq(
            (0): ResBlock(
              (block): Seq(
                (0): Conv3d(in_channels=128, out_channels=256, kernel_size=3, stride=1, dilation=1)
                (1): BatchNorm(256, eps=1e-05, momentum=0.1, affine=True, track_running_stats=True)
                (2): ReLU(inplace=True)
                (3): Conv3d(in_channels=256, out_channels=256, kernel_size=3, stride=1, dilation=1)
                (4): BatchNorm(256, eps=1e-05, momentum=0.1, affine=True, track_running_stats=True)
                (5): ReLU(inplace=True)
              )
              (downsample): Seq(
                (0): Conv3d(in_channels=128, out_channels=256, kernel_size=1, stride=1, dilation=1)
                (1): BatchNorm(256, eps=1e-05, momentum=0.1, affine=True, track_running_stats=True)
              )
            )
            (1): ResBlock(
              (block): Seq(
                (0): Conv3d(in_channels=256, out_channels=256, kernel_size=3, stride=1, dilation=1)
                (1): BatchNorm(256, eps=1e-05, momentum=0.1, affine=True, track_running_stats=True)
                (2): ReLU(inplace=True)
                (3): Conv3d(in_channels=256, out_channels=256, kernel_size=3, stride=1, dilation=1)
                (4): BatchNorm(256, eps=1e-05, momentum=0.1, affine=True, track_running_stats=True)
                (5): ReLU(inplace=True)
              )
            )
            (2): ResBlock(
              (block): Seq(
                (0): Conv3d(in_channels=256, out_channels=256, kernel_size=3, stride=1, dilation=1)
                (1): BatchNorm(256, eps=1e-05, momentum=0.1, affine=True, track_running_stats=True)
                (2): ReLU(inplace=True)
                (3): Conv3d(in_channels=256, out_channels=256, kernel_size=3, stride=1, dilation=1)
                (4): BatchNorm(256, eps=1e-05, momentum=0.1, affine=True, track_running_stats=True)
                (5): ReLU(inplace=True)
              )
            )
            (3): ResBlock(
              (block): Seq(
                (0): Conv3d(in_channels=256, out_channels=256, kernel_size=3, stride=1, dilation=1)
                (1): BatchNorm(256, eps=1e-05, momentum=0.1, affine=True, track_running_stats=True)
                (2): ReLU(inplace=True)
                (3): Conv3d(in_channels=256, out_channels=256, kernel_size=3, stride=1, dilation=1)
                (4): BatchNorm(256, eps=1e-05, momentum=0.1, affine=True, track_running_stats=True)
                (5): ReLU(inplace=True)
              )
            )
            (4): ResBlock(
              (block): Seq(
                (0): Conv3d(in_channels=256, out_channels=256, kernel_size=3, stride=1, dilation=1)
                (1): BatchNorm(256, eps=1e-05, momentum=0.1, affine=True, track_running_stats=True)
                (2): ReLU(inplace=True)
                (3): Conv3d(in_channels=256, out_channels=256, kernel_size=3, stride=1, dilation=1)
                (4): BatchNorm(256, eps=1e-05, momentum=0.1, affine=True, track_running_stats=True)
                (5): ReLU(inplace=True)
              )
            )
            (5): ResBlock(
              (block): Seq(
                (0): Conv3d(in_channels=256, out_channels=256, kernel_size=3, stride=1, dilation=1)
                (1): BatchNorm(256, eps=1e-05, momentum=0.1, affine=True, track_running_stats=True)
                (2): ReLU(inplace=True)
                (3): Conv3d(in_channels=256, out_channels=256, kernel_size=3, stride=1, dilation=1)
                (4): BatchNorm(256, eps=1e-05, momentum=0.1, affine=True, track_running_stats=True)
                (5): ReLU(inplace=True)
              )
            )
          )
        )
        (block_2): Identity()
        (image): IdentityBranch()
      )
    )
    (up_modules): ModuleList(
      (0): ResNetUp(
        (conv_in): Seq(
          (0): Conv3d(in_channels=256, out_channels=256, kernel_size=2, stride=2, dilation=1)
          (1): BatchNorm(256, eps=1e-05, momentum=0.1, affine=True, track_running_stats=True)
          (2): ReLU(inplace=True)
        )
        (blocks): Seq(
          (0): ResBlock(
            (block): Seq(
              (0): Conv3d(in_channels=384, out_channels=128, kernel_size=3, stride=1, dilation=1)
              (1): BatchNorm(128, eps=1e-05, momentum=0.1, affine=True, track_running_stats=True)
              (2): ReLU(inplace=True)
              (3): Conv3d(in_channels=128, out_channels=128, kernel_size=3, stride=1, dilation=1)
              (4): BatchNorm(128, eps=1e-05, momentum=0.1, affine=True, track_running_stats=True)
              (5): ReLU(inplace=True)
            )
            (downsample): Seq(
              (0): Conv3d(in_channels=384, out_channels=128, kernel_size=1, stride=1, dilation=1)
              (1): BatchNorm(128, eps=1e-05, momentum=0.1, affine=True, track_running_stats=True)
            )
          )
        )
      )
      (1): ResNetUp(
        (conv_in): Seq(
          (0): Conv3d(in_channels=128, out_channels=128, kernel_size=2, stride=2, dilation=1)
          (1): BatchNorm(128, eps=1e-05, momentum=0.1, affine=True, track_running_stats=True)
          (2): ReLU(inplace=True)
        )
        (blocks): Seq(
          (0): ResBlock(
            (block): Seq(
              (0): Conv3d(in_channels=192, out_channels=128, kernel_size=3, stride=1, dilation=1)
              (1): BatchNorm(128, eps=1e-05, momentum=0.1, affine=True, track_running_stats=True)
              (2): ReLU(inplace=True)
              (3): Conv3d(in_channels=128, out_channels=128, kernel_size=3, stride=1, dilation=1)
              (4): BatchNorm(128, eps=1e-05, momentum=0.1, affine=True, track_running_stats=True)
              (5): ReLU(inplace=True)
            )
            (downsample): Seq(
              (0): Conv3d(in_channels=192, out_channels=128, kernel_size=1, stride=1, dilation=1)
              (1): BatchNorm(128, eps=1e-05, momentum=0.1, affine=True, track_running_stats=True)
            )
          )
        )
      )
      (2): ResNetUp(
        (conv_in): Seq(
          (0): Conv3d(in_channels=128, out_channels=128, kernel_size=2, stride=2, dilation=1)
          (1): BatchNorm(128, eps=1e-05, momentum=0.1, affine=True, track_running_stats=True)
          (2): ReLU(inplace=True)
        )
        (blocks): Seq(
          (0): ResBlock(
            (block): Seq(
              (0): Conv3d(in_channels=160, out_channels=96, kernel_size=3, stride=1, dilation=1)
              (1): BatchNorm(96, eps=1e-05, momentum=0.1, affine=True, track_running_stats=True)
              (2): ReLU(inplace=True)
              (3): Conv3d(in_channels=96, out_channels=96, kernel_size=3, stride=1, dilation=1)
              (4): BatchNorm(96, eps=1e-05, momentum=0.1, affine=True, track_running_stats=True)
              (5): ReLU(inplace=True)
            )
            (downsample): Seq(
              (0): Conv3d(in_channels=160, out_channels=96, kernel_size=1, stride=1, dilation=1)
              (1): BatchNorm(96, eps=1e-05, momentum=0.1, affine=True, track_running_stats=True)
            )
          )
        )
      )
      (3): ResNetUp(
        (conv_in): Seq(
          (0): Conv3d(in_channels=96, out_channels=96, kernel_size=2, stride=2, dilation=1)
          (1): BatchNorm(96, eps=1e-05, momentum=0.1, affine=True, track_running_stats=True)
          (2): ReLU(inplace=True)
        )
        (blocks): Seq(
          (0): ResBlock(
            (block): Seq(
              (0): Conv3d(in_channels=160, out_channels=96, kernel_size=3, stride=1, dilation=1)
              (1): BatchNorm(96, eps=1e-05, momentum=0.1, affine=True, track_running_stats=True)
              (2): ReLU(inplace=True)
              (3): Conv3d(in_channels=96, out_channels=96, kernel_size=3, stride=1, dilation=1)
              (4): BatchNorm(96, eps=1e-05, momentum=0.1, affine=True, track_running_stats=True)
              (5): ReLU(inplace=True)
            )
            (downsample): Seq(
              (0): Conv3d(in_channels=160, out_channels=96, kernel_size=1, stride=1, dilation=1)
              (1): BatchNorm(96, eps=1e-05, momentum=0.1, affine=True, track_running_stats=True)
            )
          )
        )
      )
      (4): ResNetUp(
        (conv_in): Seq(
          (0): Conv3d(in_channels=96, out_channels=96, kernel_size=3, stride=1, dilation=1)
          (1): BatchNorm(96, eps=1e-05, momentum=0.1, affine=True, track_running_stats=True)
          (2): ReLU(inplace=True)
        )
        (blocks): Seq(
          (0): ResBlock(
            (block): Seq(
              (0): Conv3d(in_channels=96, out_channels=96, kernel_size=3, stride=1, dilation=1)
              (1): BatchNorm(96, eps=1e-05, momentum=0.1, affine=True, track_running_stats=True)
              (2): ReLU(inplace=True)
              (3): Conv3d(in_channels=96, out_channels=96, kernel_size=3, stride=1, dilation=1)
              (4): BatchNorm(96, eps=1e-05, momentum=0.1, affine=True, track_running_stats=True)
              (5): ReLU(inplace=True)
            )
          )
        )
      )
    )
  )
  (head): Sequential(
    (0): Linear(in_features=96, out_features=20, bias=True)
  )
)
[2023-02-21 17:48:33,326][torch_points3d.utils.colors][INFO] - [0;32mOptimizer: SGD (
Parameter Group 0
    base_momentum: 0.85
    dampening: 0
    foreach: None
    initial_lr: 0.012
    lr: 0.01200000000000001
    max_lr: 0.3
    max_momentum: 0.95
    maximize: False
    min_lr: 1.2e-06
    momentum: 0.95
    nesterov: False
    weight_decay: 0.0001
…
