…
ropout': 0.0, 'use_attn_mask': True, 'use_csr_mask': True, 'n_classes': 20}}
model:  MVFusion_model(
  (backbone): MVFusionEncoder(
    (down_modules): ModuleList(
      (0): MultimodalBlockDown(
        (block_1): Identity()
        (block_2): Identity()
        (image): UnimodalBranchOnlyAtomicPool(
          drop_3d=None
          drop_mod=None
          keep_last_view=False
          checkpointing=
          (atomic_pool): BimodalCSRPool()
        )
      )
    )
    (atomic_pooling): BimodalCSRPool()
    (fusion): DVA_cls_5_fusion_7(
      (fusion): TransformerFusion(
        (input_layer): Linear(in_features=29, out_features=36, bias=True)
        (transformer_layers): ModuleList(
          (0): AttentionBlock(
            (norm_1): LayerNorm((36,), eps=1e-05, elementwise_affine=True)
            (norm_2): LayerNorm((36,), eps=1e-05, elementwise_affine=True)
            (attn): MultiheadAttention(
              (out_proj): NonDynamicallyQuantizableLinear(in_features=36, out_features=36, bias=True)
            )
            (linear): Sequential(
              (0): Linear(in_features=36, out_features=144, bias=True)
              (1): GELU(approximate=none)
              (2): Dropout(p=0.0, inplace=False)
              (3): Linear(in_features=144, out_features=36, bias=True)
              (4): Dropout(p=0.0, inplace=False)
            )
          )
          (1): AttentionBlock(
            (norm_1): LayerNorm((36,), eps=1e-05, elementwise_affine=True)
            (norm_2): LayerNorm((36,), eps=1e-05, elementwise_affine=True)
            (attn): MultiheadAttention(
              (out_proj): NonDynamicallyQuantizableLinear(in_features=36, out_features=36, bias=True)
            )
            (linear): Sequential(
              (0): Linear(in_features=36, out_features=144, bias=True)
              (1): GELU(approximate=none)
              (2): Dropout(p=0.0, inplace=False)
              (3): Linear(in_features=144, out_features=36, bias=True)
              (4): Dropout(p=0.0, inplace=False)
            )
          )
          (2): AttentionBlock(
            (norm_1): LayerNorm((36,), eps=1e-05, elementwise_affine=True)
            (norm_2): LayerNorm((36,), eps=1e-05, elementwise_affine=True)
            (attn): MultiheadAttention(
              (out_proj): NonDynamicallyQuantizableLinear(in_features=36, out_features=36, bias=True)
            )
            (linear): Sequential(
              (0): Linear(in_features=36, out_features=144, bias=True)
              (1): GELU(approximate=none)
              (2): Dropout(p=0.0, inplace=False)
              (3): Linear(in_features=144, out_features=36, bias=True)
              (4): Dropout(p=0.0, inplace=False)
            )
          )
          (3): AttentionBlock(
            (norm_1): LayerNorm((36,), eps=1e-05, elementwise_affine=True)
            (norm_2): LayerNorm((36,), eps=1e-05, elementwise_affine=True)
            (attn): MultiheadAttention(
              (out_proj): NonDynamicallyQuantizableLinear(in_features=36, out_features=36, bias=True)
            )
            (linear): Sequential(
              (0): Linear(in_features=36, out_features=144, bias=True)
              (1): GELU(approximate=none)
              (2): Dropout(p=0.0, inplace=False)
              (3): Linear(in_features=144, out_features=36, bias=True)
              (4): Dropout(p=0.0, inplace=False)
            )
          )
        )
        (dropout): Dropout(p=0.0, inplace=False)
      )
      (mlp_head): Sequential(
        (0): Dropout(p=0.0, inplace=False)
        (1): LayerNorm((36,), eps=1e-05, elementwise_affine=True)
        (2): Linear(in_features=36, out_features=80, bias=True)
        (3): Linear(in_features=80, out_features=20, bias=True)
      )
    )
  )
)
[2022-10-21 15:31:23,672][torch_points3d.core.schedulers.bn_schedulers][INFO] - Setting batchnorm momentum at 0.02
task:  segmentation.multimodal
tested_model_name:  MVFusion
[2022-10-21 15:31:23,850][torch_points3d.trainer][WARNING] - The model will not be able to be used from pretrained weights without the corresponding dataset. Current properties are {'feature_dimension': 1, 'num_classes': 20}
…
