…
[2022-12-10 11:24:01,924][torch_points3d.metrics.model_checkpoint][INFO] - Model loaded from MVFusion_3D_small_6views.pt:latest
[2022-12-10 11:24:02,481][torch_points3d.trainer][INFO] - MVFusionAPIModel(
  (backbone): MVFusionSparseConv3dUnet(
    (inner_modules): ModuleList(
      (0): Identity()
    )
    (down_modules): ModuleList(
      (0): MultimodalBlockDown(
        (block_1): Identity()
        (block_2): Identity()
        (image): MVFusionUnimodalBranch(
          drop_3d=None
          drop_mod=None
          keep_last_view=False
          checkpointing=c
          (transformerfusion): DVA_cls_5_fusion_7(
            (fusion): TransformerFusion(
              (input_layer): Linear(in_features=29, out_features=64, bias=True)
              (transformer_layers): ModuleList(
                (0): AttentionBlock(
                  (norm_1): LayerNorm((64,), eps=1e-05, elementwise_affine=True)
                  (norm_2): LayerNorm((64,), eps=1e-05, elementwise_affine=True)
                  (attn): MultiheadAttention(
                    (out_proj): NonDynamicallyQuantizableLinear(in_features=64, out_features=64, bias=True)
                  )
                  (linear): Sequential(
                    (0): Linear(in_features=64, out_features=256, bias=True)
                    (1): GELU(approximate=none)
                    (2): Dropout(p=0.2, inplace=False)
                    (3): Linear(in_features=256, out_features=64, bias=True)
                    (4): Dropout(p=0.2, inplace=False)
                  )
                )
                (1): AttentionBlock(
                  (norm_1): LayerNorm((64,), eps=1e-05, elementwise_affine=True)
                  (norm_2): LayerNorm((64,), eps=1e-05, elementwise_affine=True)
                  (attn): MultiheadAttention(
                    (out_proj): NonDynamicallyQuantizableLinear(in_features=64, out_features=64, bias=True)
                  )
                  (linear): Sequential(
                    (0): Linear(in_features=64, out_features=256, bias=True)
                    (1): GELU(approximate=none)
                    (2): Dropout(p=0.2, inplace=False)
                    (3): Linear(in_features=256, out_features=64, bias=True)
                    (4): Dropout(p=0.2, inplace=False)
                  )
                )
                (2): AttentionBlock(
                  (norm_1): LayerNorm((64,), eps=1e-05, elementwise_affine=True)
                  (norm_2): LayerNorm((64,), eps=1e-05, elementwise_affine=True)
                  (attn): MultiheadAttention(
                    (out_proj): NonDynamicallyQuantizableLinear(in_features=64, out_features=64, bias=True)
                  )
                  (linear): Sequential(
                    (0): Linear(in_features=64, out_features=256, bias=True)
                    (1): GELU(approximate=none)
                    (2): Dropout(p=0.2, inplace=False)
                    (3): Linear(in_features=256, out_features=64, bias=True)
                    (4): Dropout(p=0.2, inplace=False)
                  )
                )
                (3): AttentionBlock(
                  (norm_1): LayerNorm((64,), eps=1e-05, elementwise_affine=True)
                  (norm_2): LayerNorm((64,), eps=1e-05, elementwise_affine=True)
                  (attn): MultiheadAttention(
                    (out_proj): NonDynamicallyQuantizableLinear(in_features=64, out_features=64, bias=True)
                  )
                  (linear): Sequential(
                    (0): Linear(in_features=64, out_features=256, bias=True)
                    (1): GELU(approximate=none)
                    (2): Dropout(p=0.2, inplace=False)
                    (3): Linear(in_features=256, out_features=64, bias=True)
                    (4): Dropout(p=0.2, inplace=False)
                  )
                )
              )
            )
            (layer_norm): LayerNorm((64,), eps=1e-05, elementwise_affine=True)
          )
          (fusion): BimodalFusion(mode=concatenation)
        )
      )
      (1): MultimodalBlockDown(
        (block_1): ResNetDown(
          (conv_in): Seq(
            (0): Conv3d(in_channels=67, out_channels=64, kernel_size=3, stride=1, dilation=1)
            (1): BatchNorm(64, eps=1e-05, momentum=0.1, affine=True, track_running_stats=True)
            (2): ReLU(inplace=True)
          )
        )
        (block_2): Identity()
        (image): IdentityBranch()
      )
      (2): MultimodalBlockDown(
        (block_1): ResNetDown(
          (conv_in): Seq(
            (0): Conv3d(in_channels=64, out_channels=64, kernel_size=2, stride=2, dilation=1)
            (1): BatchNorm(64, eps=1e-05, momentum=0.1, affine=True, track_running_stats=True)
            (2): ReLU(inplace=True)
          )
          (blocks): Seq(
            (0): ResBlock(
              (block): Seq(
                (0): Conv3d(in_channels=64, out_channels=32, kernel_size=3, stride=1, dilation=1)
                (1): BatchNorm(32, eps=1e-05, momentum=0.1, affine=True, track_running_stats=True)
                (2): ReLU(inplace=True)
                (3): Conv3d(in_channels=32, out_channels=32, kernel_size=3, stride=1, dilation=1)
                (4): BatchNorm(32, eps=1e-05, momentum=0.1, affine=True, track_running_stats=True)
                (5): ReLU(inplace=True)
              )
              (downsample): Seq(
                (0): Conv3d(in_channels=64, out_channels=32, kernel_size=1, stride=1, dilation=1)
                (1): BatchNorm(32, eps=1e-05, momentum=0.1, affine=True, track_running_stats=True)
              )
            )
            (1): ResBlock(
              (block): Seq(
                (0): Conv3d(in_channels=32, out_channels=32, kernel_size=3, stride=1, dilation=1)
                (1): BatchNorm(32, eps=1e-05, momentum=0.1, affine=True, track_running_stats=True)
                (2): ReLU(inplace=True)
                (3): Conv3d(in_channels=32, out_channels=32, kernel_size=3, stride=1, dilation=1)
                (4): BatchNorm(32, eps=1e-05, momentum=0.1, affine=True, track_running_stats=True)
                (5): ReLU(inplace=True)
              )
            )
          )
        )
        (block_2): Identity()
        (image): IdentityBranch()
      )
      (3): MultimodalBlockDown(
        (block_1): ResNetDown(
          (conv_in): Seq(
            (0): Conv3d(in_channels=32, out_channels=32, kernel_size=2, stride=2, dilation=1)
            (1): BatchNorm(32, eps=1e-05, momentum=0.1, affine=True, track_running_stats=True)
            (2): ReLU(inplace=True)
          )
          (blocks): Seq(
            (0): ResBlock(
              (block): Seq(
                (0): Conv3d(in_channels=32, out_channels=64, kernel_size=3, stride=1, dilation=1)
                (1): BatchNorm(64, eps=1e-05, momentum=0.1, affine=True, track_running_stats=True)
                (2): ReLU(inplace=True)
                (3): Conv3d(in_channels=64, out_channels=64, kernel_size=3, stride=1, dilation=1)
                (4): BatchNorm(64, eps=1e-05, momentum=0.1, affine=True, track_running_stats=True)
                (5): ReLU(inplace=True)
              )
              (downsample): Seq(
                (0): Conv3d(in_channels=32, out_channels=64, kernel_size=1, stride=1, dilation=1)
                (1): BatchNorm(64, eps=1e-05, momentum=0.1, affine=True, track_running_stats=True)
              )
            )
            (1): ResBlock(
              (block): Seq(
                (0): Conv3d(in_channels=64, out_channels=64, kernel_size=3, stride=1, dilation=1)
                (1): BatchNorm(64, eps=1e-05, momentum=0.1, affine=True, track_running_stats=True)
                (2): ReLU(inplace=True)
                (3): Conv3d(in_channels=64, out_channels=64, kernel_size=3, stride=1, dilation=1)
                (4): BatchNorm(64, eps=1e-05, momentum=0.1, affine=True, track_running_stats=True)
                (5): ReLU(inplace=True)
              )
            )
            (2): ResBlock(
              (block): Seq(
                (0): Conv3d(in_channels=64, out_channels=64, kernel_size=3, stride=1, dilation=1)
                (1): BatchNorm(64, eps=1e-05, momentum=0.1, affine=True, track_running_stats=True)
                (2): ReLU(inplace=True)
                (3): Conv3d(in_channels=64, out_channels=64, kernel_size=3, stride=1, dilation=1)
                (4): BatchNorm(64, eps=1e-05, momentum=0.1, affine=True, track_running_stats=True)
                (5): ReLU(inplace=True)
              )
            )
          )
        )
        (block_2): Identity()
        (image): IdentityBranch()
      )
      (4): MultimodalBlockDown(
        (block_1): ResNetDown(
          (conv_in): Seq(
            (0): Conv3d(in_channels=64, out_channels=64, kernel_size=2, stride=2, dilation=1)
            (1): BatchNorm(64, eps=1e-05, momentum=0.1, affine=True, track_running_stats=True)
            (2): ReLU(inplace=True)
          )
          (blocks): Seq(
            (0): ResBlock(
              (block): Seq(
                (0): Conv3d(in_channels=64, out_channels=128, kernel_size=3, stride=1, dilation=1)
                (1): BatchNorm(128, eps=1e-05, momentum=0.1, affine=True, track_running_stats=True)
                (2): ReLU(inplace=True)
                (3): Conv3d(in_channels=128, out_channels=128, kernel_size=3, stride=1, dilation=1)
                (4): BatchNorm(128, eps=1e-05, momentum=0.1, affine=True, track_running_stats=True)
                (5): ReLU(inplace=True)
              )
              (downsample): Seq(
                (0): Conv3d(in_channels=64, out_channels=128, kernel_size=1, stride=1, dilation=1)
                (1): BatchNorm(128, eps=1e-05, momentum=0.1, affine=True, track_running_stats=True)
              )
            )
            (1): ResBlock(
              (block): Seq(
                (0): Conv3d(in_channels=128, out_channels=128, kernel_size=3, stride=1, dilation=1)
                (1): BatchNorm(128, eps=1e-05, momentum=0.1, affine=True, track_running_stats=True)
                (2): ReLU(inplace=True)
                (3): Conv3d(in_channels=128, out_channels=128, kernel_size=3, stride=1, dilation=1)
                (4): BatchNorm(128, eps=1e-05, momentum=0.1, affine=True, track_running_stats=True)
                (5): ReLU(inplace=True)
              )
            )
            (2): ResBlock(
              (block): Seq(
                (0): Conv3d(in_channels=128, out_channels=128, kernel_size=3, stride=1, dilation=1)
                (1): BatchNorm(128, eps=1e-05, momentum=0.1, affine=True, track_running_stats=True)
                (2): ReLU(inplace=True)
                (3): Conv3d(in_channels=128, out_channels=128, kernel_size=3, stride=1, dilation=1)
                (4): BatchNorm(128, eps=1e-05, momentum=0.1, affine=True, track_running_stats=True)
                (5): ReLU(inplace=True)
              )
            )
            (3): ResBlock(
              (block): Seq(
                (0): Conv3d(in_channels=128, out_channels=128, kernel_size=3, stride=1, dilation=1)
                (1): BatchNorm(128, eps=1e-05, momentum=0.1, affine=True, track_running_stats=True)
                (2): ReLU(inplace=True)
                (3): Conv3d(in_channels=128, out_channels=128, kernel_size=3, stride=1, dilation=1)
                (4): BatchNorm(128, eps=1e-05, momentum=0.1, affine=True, track_running_stats=True)
                (5): ReLU(inplace=True)
              )
            )
          )
        )
        (block_2): Identity()
        (image): IdentityBranch()
      )
      (5): MultimodalBlockDown(
        (block_1): ResNetDown(
          (conv_in): Seq(
            (0): Conv3d(in_channels=128, out_channels=128, kernel_size=2, stride=2, dilation=1)
            (1): BatchNorm(128, eps=1e-05, momentum=0.1, affine=True, track_running_stats=True)
            (2): ReLU(inplace=True)
          )
          (blocks): Seq(
            (0): ResBlock(
              (block): Seq(
                (0): Conv3d(in_channels=128, out_channels=256, kernel_size=3, stride=1, dilation=1)
                (1): BatchNorm(256, eps=1e-05, momentum=0.1, affine=True, track_running_stats=True)
                (2): ReLU(inplace=True)
                (3): Conv3d(in_channels=256, out_channels=256, kernel_size=3, stride=1, dilation=1)
                (4): BatchNorm(256, eps=1e-05, momentum=0.1, affine=True, track_running_stats=True)
                (5): ReLU(inplace=True)
              )
              (downsample): Seq(
                (0): Conv3d(in_channels=128, out_channels=256, kernel_size=1, stride=1, dilation=1)
                (1): BatchNorm(256, eps=1e-05, momentum=0.1, affine=True, track_running_stats=True)
              )
            )
            (1): ResBlock(
              (block): Seq(
                (0): Conv3d(in_channels=256, out_channels=256, kernel_size=3, stride=1, dilation=1)
                (1): BatchNorm(256, eps=1e-05, momentum=0.1, affine=True, track_running_stats=True)
                (2): ReLU(inplace=True)
                (3): Conv3d(in_channels=256, out_channels=256, kernel_size=3, stride=1, dilation=1)
                (4): BatchNorm(256, eps=1e-05, momentum=0.1, affine=True, track_running_stats=True)
                (5): ReLU(inplace=True)
              )
            )
            (2): ResBlock(
              (block): Seq(
                (0): Conv3d(in_channels=256, out_channels=256, kernel_size=3, stride=1, dilation=1)
                (1): BatchNorm(256, eps=1e-05, momentum=0.1, affine=True, track_running_stats=True)
                (2): ReLU(inplace=True)
                (3): Conv3d(in_channels=256, out_channels=256, kernel_size=3, stride=1, dilation=1)
                (4): BatchNorm(256, eps=1e-05, momentum=0.1, affine=True, track_running_stats=True)
                (5): ReLU(inplace=True)
              )
            )
            (3): ResBlock(
              (block): Seq(
                (0): Conv3d(in_channels=256, out_channels=256, kernel_size=3, stride=1, dilation=1)
                (1): BatchNorm(256, eps=1e-05, momentum=0.1, affine=True, track_running_stats=True)
                (2): ReLU(inplace=True)
                (3): Conv3d(in_channels=256, out_channels=256, kernel_size=3, stride=1, dilation=1)
                (4): BatchNorm(256, eps=1e-05, momentum=0.1, affine=True, track_running_stats=True)
                (5): ReLU(inplace=True)
              )
            )
            (4): ResBlock(
              (block): Seq(
                (0): Conv3d(in_channels=256, out_channels=256, kernel_size=3, stride=1, dilation=1)
                (1): BatchNorm(256, eps=1e-05, momentum=0.1, affine=True, track_running_stats=True)
                (2): ReLU(inplace=True)
                (3): Conv3d(in_channels=256, out_channels=256, kernel_size=3, stride=1, dilation=1)
                (4): BatchNorm(256, eps=1e-05, momentum=0.1, affine=True, track_running_stats=True)
                (5): ReLU(inplace=True)
              )
            )
            (5): ResBlock(
              (block): Seq(
                (0): Conv3d(in_channels=256, out_channels=256, kernel_size=3, stride=1, dilation=1)
                (1): BatchNorm(256, eps=1e-05, momentum=0.1, affine=True, track_running_stats=True)
                (2): ReLU(inplace=True)
                (3): Conv3d(in_channels=256, out_channels=256, kernel_size=3, stride=1, dilation=1)
                (4): BatchNorm(256, eps=1e-05, momentum=0.1, affine=True, track_running_stats=True)
                (5): ReLU(inplace=True)
              )
            )
          )
        )
        (block_2): Identity()
        (image): IdentityBranch()
      )
    )
    (up_modules): ModuleList(
      (0): ResNetUp(
        (conv_in): Seq(
          (0): Conv3d(in_channels=256, out_channels=256, kernel_size=2, stride=2, dilation=1)
          (1): BatchNorm(256, eps=1e-05, momentum=0.1, affine=True, track_running_stats=True)
          (2): ReLU(inplace=True)
        )
        (blocks): Seq(
          (0): ResBlock(
            (block): Seq(
              (0): Conv3d(in_channels=384, out_channels=128, kernel_size=3, stride=1, dilation=1)
              (1): BatchNorm(128, eps=1e-05, momentum=0.1, affine=True, track_running_stats=True)
              (2): ReLU(inplace=True)
              (3): Conv3d(in_channels=128, out_channels=128, kernel_size=3, stride=1, dilation=1)
              (4): BatchNorm(128, eps=1e-05, momentum=0.1, affine=True, track_running_stats=True)
              (5): ReLU(inplace=True)
            )
            (downsample): Seq(
              (0): Conv3d(in_channels=384, out_channels=128, kernel_size=1, stride=1, dilation=1)
              (1): BatchNorm(128, eps=1e-05, momentum=0.1, affine=True, track_running_stats=True)
            )
          )
        )
      )
      (1): ResNetUp(
        (conv_in): Seq(
          (0): Conv3d(in_channels=128, out_channels=128, kernel_size=2, stride=2, dilation=1)
          (1): BatchNorm(128, eps=1e-05, momentum=0.1, affine=True, track_running_stats=True)
          (2): ReLU(inplace=True)
        )
        (blocks): Seq(
          (0): ResBlock(
            (block): Seq(
              (0): Conv3d(in_channels=192, out_channels=128, kernel_size=3, stride=1, dilation=1)
              (1): BatchNorm(128, eps=1e-05, momentum=0.1, affine=True, track_running_stats=True)
              (2): ReLU(inplace=True)
              (3): Conv3d(in_channels=128, out_channels=128, kernel_size=3, stride=1, dilation=1)
              (4): BatchNorm(128, eps=1e-05, momentum=0.1, affine=True, track_running_stats=True)
              (5): ReLU(inplace=True)
            )
            (downsample): Seq(
              (0): Conv3d(in_channels=192, out_channels=128, kernel_size=1, stride=1, dilation=1)
              (1): BatchNorm(128, eps=1e-05, momentum=0.1, affine=True, track_running_stats=True)
            )
          )
        )
      )
      (2): ResNetUp(
        (conv_in): Seq(
          (0): Conv3d(in_channels=128, out_channels=128, kernel_size=2, stride=2, dilation=1)
          (1): BatchNorm(128, eps=1e-05, momentum=0.1, affine=True, track_running_stats=True)
          (2): ReLU(inplace=True)
        )
        (blocks): Seq(
          (0): ResBlock(
            (block): Seq(
              (0): Conv3d(in_channels=160, out_channels=96, kernel_size=3, stride=1, dilation=1)
              (1): BatchNorm(96, eps=1e-05, momentum=0.1, affine=True, track_running_stats=True)
              (2): ReLU(inplace=True)
              (3): Conv3d(in_channels=96, out_channels=96, kernel_size=3, stride=1, dilation=1)
              (4): BatchNorm(96, eps=1e-05, momentum=0.1, affine=True, track_running_stats=True)
              (5): ReLU(inplace=True)
            )
            (downsample): Seq(
              (0): Conv3d(in_channels=160, out_channels=96, kernel_size=1, stride=1, dilation=1)
              (1): BatchNorm(96, eps=1e-05, momentum=0.1, affine=True, track_running_stats=True)
            )
          )
        )
      )
      (3): ResNetUp(
        (conv_in): Seq(
          (0): Conv3d(in_channels=96, out_channels=96, kernel_size=2, stride=2, dilation=1)
          (1): BatchNorm(96, eps=1e-05, momentum=0.1, affine=True, track_running_stats=True)
          (2): ReLU(inplace=True)
        )
        (blocks): Seq(
          (0): ResBlock(
            (block): Seq(
              (0): Conv3d(in_channels=160, out_channels=96, kernel_size=3, stride=1, dilation=1)
              (1): BatchNorm(96, eps=1e-05, momentum=0.1, affine=True, track_running_stats=True)
              (2): ReLU(inplace=True)
              (3): Conv3d(in_channels=96, out_channels=96, kernel_size=3, stride=1, dilation=1)
              (4): BatchNorm(96, eps=1e-05, momentum=0.1, affine=True, track_running_stats=True)
              (5): ReLU(inplace=True)
            )
            (downsample): Seq(
              (0): Conv3d(in_channels=160, out_channels=96, kernel_size=1, stride=1, dilation=1)
              (1): BatchNorm(96, eps=1e-05, momentum=0.1, affine=True, track_running_stats=True)
            )
          )
        )
      )
      (4): ResNetUp(
        (conv_in): Seq(
          (0): Conv3d(in_channels=96, out_channels=96, kernel_size=3, stride=1, dilation=1)
          (1): BatchNorm(96, eps=1e-05, momentum=0.1, affine=True, track_running_stats=True)
          (2): ReLU(inplace=True)
        )
        (blocks): Seq(
          (0): ResBlock(
            (block): Seq(
              (0): Conv3d(in_channels=96, out_channels=96, kernel_size=3, stride=1, dilation=1)
              (1): BatchNorm(96, eps=1e-05, momentum=0.1, affine=True, track_running_stats=True)
              (2): ReLU(inplace=True)
              (3): Conv3d(in_channels=96, out_channels=96, kernel_size=3, stride=1, dilation=1)
              (4): BatchNorm(96, eps=1e-05, momentum=0.1, affine=True, track_running_stats=True)
              (5): ReLU(inplace=True)
            )
          )
        )
      )
    )
  )
  (head): Sequential(
    (0): Linear(in_features=96, out_features=20, bias=True)
  )
)
[2022-12-10 11:24:02,484][torch_points3d.utils.colors][INFO] - [0;32mOptimizer: SGD (
Parameter Group 0
    base_momentum: 0.85
    dampening: 0
    foreach: None
    initial_lr: 0.012
    lr: 1.2066078413381546e-06
    max_lr: 0.3
    max_momentum: 0.95
    maximize: False
    min_lr: 1.2e-06
    momentum: 0.9499999977973773
    nesterov: False
    weight_decay: 0.0001
…
