…
WARNING - 2023-02-09 23:28:50,224 - evaluate_all_metrics - The model will not be able to be used from pretrained weights without the corresponding dataset. Current properties are {'feature_dimension': 3, 'num_classes': 20}
INFO - 2023-02-09 23:28:50,224 - evaluate_all_metrics - ViewSelectionExp_model(
  (backbone): ViewSelectionExpEncoder(
    (down_modules): ModuleList(
      (0): MultimodalBlockDown(
        (block_1): Identity()
        (block_2): Identity()
        (image): UnimodalBranchOnlyAtomicPool(
          drop_3d=None
          drop_mod=None
          keep_last_view=False
          checkpointing=
        )
      )
    )
    (fusion): DeepSetFeat_ViewExperiment(
      pool=['max']
      fusion=concatenation
      use_num=True
      (mlp_elt_1): Sequential(
        (0): Sequential(
          (0): Linear(in_features=28, out_features=32, bias=False)
          (1): FastBatchNorm1d(
            (batch_norm): BatchNorm1d(32, eps=1e-05, momentum=0.1, affine=True, track_running_stats=True)
          )
          (2): LeakyReLU(negative_slope=0.2, inplace=True)
        )
        (1): Sequential(
          (0): Linear(in_features=32, out_features=32, bias=False)
          (1): FastBatchNorm1d(
            (batch_norm): BatchNorm1d(32, eps=1e-05, momentum=0.1, affine=True, track_running_stats=True)
          )
          (2): LeakyReLU(negative_slope=0.2, inplace=True)
        )
      )
      (mlp_set): Sequential(
        (0): Sequential(
          (0): Linear(in_features=33, out_features=32, bias=False)
          (1): FastBatchNorm1d(
            (batch_norm): BatchNorm1d(32, eps=1e-05, momentum=0.1, affine=True, track_running_stats=True)
          )
          (2): LeakyReLU(negative_slope=0.2, inplace=True)
        )
        (1): Sequential(
          (0): Linear(in_features=32, out_features=32, bias=False)
          (1): FastBatchNorm1d(
            (batch_norm): BatchNorm1d(32, eps=1e-05, momentum=0.1, affine=True, track_running_stats=True)
          )
          (2): LeakyReLU(negative_slope=0.2, inplace=True)
        )
      )
      (mlp_elt_2): Sequential(
        (0): Sequential(
          (0): Linear(in_features=64, out_features=32, bias=False)
          (1): FastBatchNorm1d(
            (batch_norm): BatchNorm1d(32, eps=1e-05, momentum=0.1, affine=True, track_running_stats=True)
          )
          (2): LeakyReLU(negative_slope=0.2, inplace=True)
        )
        (1): Sequential(
          (0): Linear(in_features=32, out_features=32, bias=False)
          (1): FastBatchNorm1d(
            (batch_norm): BatchNorm1d(32, eps=1e-05, momentum=0.1, affine=True, track_running_stats=True)
          )
          (2): LeakyReLU(negative_slope=0.2, inplace=True)
        )
      )
      (E_score): Linear(in_features=32, out_features=32, bias=True)
    )
  )
  (head): Sequential(
    (0): Linear(in_features=32, out_features=20, bias=True)
  )
)
INFO - 2023-02-09 23:28:50,225 - colors - [0;32mOptimizer: Adam (
Parameter Group 0
    amsgrad: False
    betas: (0.9, 0.999)
    capturable: False
    eps: 1e-08
    foreach: None
    initial_lr: 0.001
    lr: 0.001
    maximize: False
    weight_decay: 0
)[0m
INFO - 2023-02-09 23:28:50,225 - colors - [0;32mLearning Rate Scheduler: ExponentialLR({'gamma': 0.9885}, update_scheduler_on=on_epoch)[0m
…
