…
[2022-11-22 19:05:45,457][torch_points3d.trainer][WARNING] - The model will not be able to be used from pretrained weights without the corresponding dataset. Current properties are {'feature_dimension': 3, 'num_classes': 20}
[2022-11-22 19:05:45,457][torch_points3d.trainer][INFO] - MVFusion_model(
  (backbone): MVFusionEncoder(
    (down_modules): ModuleList(
      (0): MultimodalBlockDown(
        (block_1): Identity()
        (block_2): Identity()
        (image): UnimodalBranchOnlyAtomicPool(
          drop_3d=None
          drop_mod=None
          keep_last_view=False
          checkpointing=
        )
      )
    )
    (mlp): Sequential(
      (0): Sequential(
        (0): Linear(in_features=64, out_features=20, bias=False)
        (1): FastBatchNorm1d(
          (batch_norm): BatchNorm1d(20, eps=1e-05, momentum=0.1, affine=True, track_running_stats=True)
        )
        (2): ReLU()
      )
    )
    (fusion): DVA_cls_5_fusion_7(
      (fusion): TransformerFusion(
        (input_layer): Linear(in_features=29, out_features=64, bias=True)
        (transformer_layers): ModuleList(
          (0): AttentionBlock(
            (norm_1): LayerNorm((64,), eps=1e-05, elementwise_affine=True)
            (norm_2): LayerNorm((64,), eps=1e-05, elementwise_affine=True)
            (attn): MultiheadAttention(
              (out_proj): NonDynamicallyQuantizableLinear(in_features=64, out_features=64, bias=True)
            )
            (linear): Sequential(
              (0): Linear(in_features=64, out_features=256, bias=True)
              (1): GELU(approximate=none)
              (2): Dropout(p=0.2, inplace=False)
              (3): Linear(in_features=256, out_features=64, bias=True)
              (4): Dropout(p=0.2, inplace=False)
            )
          )
          (1): AttentionBlock(
            (norm_1): LayerNorm((64,), eps=1e-05, elementwise_affine=True)
            (norm_2): LayerNorm((64,), eps=1e-05, elementwise_affine=True)
            (attn): MultiheadAttention(
              (out_proj): NonDynamicallyQuantizableLinear(in_features=64, out_features=64, bias=True)
            )
            (linear): Sequential(
              (0): Linear(in_features=64, out_features=256, bias=True)
              (1): GELU(approximate=none)
              (2): Dropout(p=0.2, inplace=False)
              (3): Linear(in_features=256, out_features=64, bias=True)
              (4): Dropout(p=0.2, inplace=False)
            )
          )
          (2): AttentionBlock(
            (norm_1): LayerNorm((64,), eps=1e-05, elementwise_affine=True)
            (norm_2): LayerNorm((64,), eps=1e-05, elementwise_affine=True)
            (attn): MultiheadAttention(
              (out_proj): NonDynamicallyQuantizableLinear(in_features=64, out_features=64, bias=True)
            )
            (linear): Sequential(
              (0): Linear(in_features=64, out_features=256, bias=True)
              (1): GELU(approximate=none)
              (2): Dropout(p=0.2, inplace=False)
              (3): Linear(in_features=256, out_features=64, bias=True)
              (4): Dropout(p=0.2, inplace=False)
            )
          )
          (3): AttentionBlock(
            (norm_1): LayerNorm((64,), eps=1e-05, elementwise_affine=True)
            (norm_2): LayerNorm((64,), eps=1e-05, elementwise_affine=True)
            (attn): MultiheadAttention(
              (out_proj): NonDynamicallyQuantizableLinear(in_features=64, out_features=64, bias=True)
            )
            (linear): Sequential(
              (0): Linear(in_features=64, out_features=256, bias=True)
              (1): GELU(approximate=none)
              (2): Dropout(p=0.2, inplace=False)
              (3): Linear(in_features=256, out_features=64, bias=True)
              (4): Dropout(p=0.2, inplace=False)
            )
          )
        )
      )
      (layer_norm): LayerNorm((64,), eps=1e-05, elementwise_affine=True)
    )
  )
)
[2022-11-22 19:05:45,458][torch_points3d.utils.colors][INFO] - [0;32mOptimizer: SGD (
Parameter Group 0
    base_momentum: 0.85
    dampening: 0
    foreach: None
    initial_lr: 0.012
    lr: 0.01200000000000001
    max_lr: 0.3
    max_momentum: 0.95
    maximize: False
    min_lr: 1.2e-06
    momentum: 0.95
    nesterov: False
    weight_decay: 0.0001
…
