…
[2023-01-16 15:34:31,274][torch_points3d.trainer][WARNING] - The model will not be able to be used from pretrained weights without the corresponding dataset. Current properties are {'feature_dimension': 3, 'num_classes': 20}
[2023-01-16 15:34:31,275][torch_points3d.trainer][INFO] - ViewSelectionExp_model(
  (backbone): ViewSelectionExpEncoder(
    (down_modules): ModuleList(
      (0): MultimodalBlockDown(
        (block_1): Identity()
        (block_2): Identity()
        (image): UnimodalBranchOnlyAtomicPool(
          drop_3d=None
          drop_mod=None
          keep_last_view=False
          checkpointing=
        )
      )
    )
    (fusion): DeepSetFeat_ViewExperiment(
      pool=['max']
      fusion=concatenation
      use_num=True
      (mlp_elt_1): Sequential(
        (0): Sequential(
          (0): Linear(in_features=28, out_features=32, bias=False)
          (1): FastBatchNorm1d(
            (batch_norm): BatchNorm1d(32, eps=1e-05, momentum=0.1, affine=True, track_running_stats=True)
          )
          (2): LeakyReLU(negative_slope=0.2, inplace=True)
        )
        (1): Sequential(
          (0): Linear(in_features=32, out_features=32, bias=False)
          (1): FastBatchNorm1d(
            (batch_norm): BatchNorm1d(32, eps=1e-05, momentum=0.1, affine=True, track_running_stats=True)
          )
          (2): LeakyReLU(negative_slope=0.2, inplace=True)
        )
      )
      (mlp_set): Sequential(
        (0): Sequential(
          (0): Linear(in_features=33, out_features=32, bias=False)
          (1): FastBatchNorm1d(
            (batch_norm): BatchNorm1d(32, eps=1e-05, momentum=0.1, affine=True, track_running_stats=True)
          )
          (2): LeakyReLU(negative_slope=0.2, inplace=True)
        )
        (1): Sequential(
          (0): Linear(in_features=32, out_features=32, bias=False)
          (1): FastBatchNorm1d(
            (batch_norm): BatchNorm1d(32, eps=1e-05, momentum=0.1, affine=True, track_running_stats=True)
          )
          (2): LeakyReLU(negative_slope=0.2, inplace=True)
        )
      )
      (mlp_elt_2): Sequential(
        (0): Sequential(
          (0): Linear(in_features=64, out_features=32, bias=False)
          (1): FastBatchNorm1d(
            (batch_norm): BatchNorm1d(32, eps=1e-05, momentum=0.1, affine=True, track_running_stats=True)
          )
          (2): LeakyReLU(negative_slope=0.2, inplace=True)
        )
        (1): Sequential(
          (0): Linear(in_features=32, out_features=32, bias=False)
          (1): FastBatchNorm1d(
            (batch_norm): BatchNorm1d(32, eps=1e-05, momentum=0.1, affine=True, track_running_stats=True)
          )
          (2): LeakyReLU(negative_slope=0.2, inplace=True)
        )
      )
      (E_score): Linear(in_features=32, out_features=20, bias=True)
    )
  )
  (head): Sequential(
    (0): Linear(in_features=20, out_features=20, bias=True)
  )
)
[2023-01-16 15:34:31,275][torch_points3d.utils.colors][INFO] - [0;32mOptimizer: SGD (
Parameter Group 0
    base_momentum: 0.85
    dampening: 0
    foreach: None
    initial_lr: 0.012
    lr: 0.01200000000000001
    max_lr: 0.3
    max_momentum: 0.95
    maximize: False
    min_lr: 1.2e-06
    momentum: 0.95
    nesterov: False
    weight_decay: 0.0001
…
