…
[2023-01-18 12:26:55,857][torch_points3d.trainer][WARNING] - The model will not be able to be used from pretrained weights without the corresponding dataset. Current properties are {'feature_dimension': 3, 'num_classes': 20}
[2023-01-18 12:26:55,857][torch_points3d.trainer][INFO] - MVFusion_model(
  (backbone): MVFusionEncoder(
    (down_modules): ModuleList(
      (0): MultimodalBlockDown(
        (block_1): Identity()
        (block_2): Identity()
        (image): UnimodalBranchOnlyAtomicPool(
          drop_3d=None
          drop_mod=None
          keep_last_view=False
          checkpointing=
        )
      )
    )
    (fusion): DVA_cls_5_fusion_7(
      (fusion): TransformerFusion(
        (input_layer): Linear(in_features=29, out_features=64, bias=True)
        (transformer_layers): ModuleList(
          (0): AttentionBlock(
            (norm_1): LayerNorm((64,), eps=1e-05, elementwise_affine=True)
            (norm_2): LayerNorm((64,), eps=1e-05, elementwise_affine=True)
            (attn): MultiheadAttention(
              (out_proj): NonDynamicallyQuantizableLinear(in_features=64, out_features=64, bias=True)
            )
            (linear): Sequential(
              (0): Linear(in_features=64, out_features=256, bias=True)
              (1): GELU(approximate=none)
              (2): Dropout(p=0.2, inplace=False)
              (3): Linear(in_features=256, out_features=64, bias=True)
              (4): Dropout(p=0.2, inplace=False)
            )
          )
          (1): AttentionBlock(
            (norm_1): LayerNorm((64,), eps=1e-05, elementwise_affine=True)
            (norm_2): LayerNorm((64,), eps=1e-05, elementwise_affine=True)
            (attn): MultiheadAttention(
              (out_proj): NonDynamicallyQuantizableLinear(in_features=64, out_features=64, bias=True)
            )
            (linear): Sequential(
              (0): Linear(in_features=64, out_features=256, bias=True)
              (1): GELU(approximate=none)
              (2): Dropout(p=0.2, inplace=False)
              (3): Linear(in_features=256, out_features=64, bias=True)
              (4): Dropout(p=0.2, inplace=False)
            )
          )
          (2): AttentionBlock(
            (norm_1): LayerNorm((64,), eps=1e-05, elementwise_affine=True)
            (norm_2): LayerNorm((64,), eps=1e-05, elementwise_affine=True)
            (attn): MultiheadAttention(
              (out_proj): NonDynamicallyQuantizableLinear(in_features=64, out_features=64, bias=True)
            )
            (linear): Sequential(
              (0): Linear(in_features=64, out_features=256, bias=True)
              (1): GELU(approximate=none)
              (2): Dropout(p=0.2, inplace=False)
              (3): Linear(in_features=256, out_features=64, bias=True)
              (4): Dropout(p=0.2, inplace=False)
            )
          )
          (3): AttentionBlock(
            (norm_1): LayerNorm((64,), eps=1e-05, elementwise_affine=True)
            (norm_2): LayerNorm((64,), eps=1e-05, elementwise_affine=True)
            (attn): MultiheadAttention(
              (out_proj): NonDynamicallyQuantizableLinear(in_features=64, out_features=64, bias=True)
            )
            (linear): Sequential(
              (0): Linear(in_features=64, out_features=256, bias=True)
              (1): GELU(approximate=none)
              (2): Dropout(p=0.2, inplace=False)
              (3): Linear(in_features=256, out_features=64, bias=True)
              (4): Dropout(p=0.2, inplace=False)
            )
          )
        )
      )
      (layer_norm): LayerNorm((64,), eps=1e-05, elementwise_affine=True)
      (downprojection): Linear(in_features=64, out_features=32, bias=True)
    )
  )
  (head): Sequential(
    (0): Linear(in_features=32, out_features=40, bias=True)
    (1): Linear(in_features=40, out_features=20, bias=True)
  )
)
[2023-01-18 12:26:55,858][torch_points3d.utils.colors][INFO] - [0;32mOptimizer: SGD (
Parameter Group 0
    base_momentum: 0.85
    dampening: 0
    foreach: None
    initial_lr: 0.12
    lr: 0.1200000000000001
    max_lr: 3.0
    max_momentum: 0.95
    maximize: False
    min_lr: 1.2e-05
    momentum: 0.95
    nesterov: False
    weight_decay: 0.0001
…
