…
[2022-10-16 15:05:19,782][torch_points3d.trainer][WARNING] - The model will not be able to be used from pretrained weights without the corresponding dataset. Current properties are {'feature_dimension': 1, 'num_classes': 20}
[2022-10-16 15:05:19,782][torch_points3d.trainer][INFO] - APIModel(
  (backbone): SparseConv3dUnet(
    (inner_modules): ModuleList(
      (0): Identity()
    )
    (down_modules): ModuleList(
      (0): MultimodalBlockDown(
        (block_1): Identity()
        (block_2): Identity()
        (image): UnimodalBranch(
          drop_3d=None
          drop_mod=None
          keep_last_view=False
          checkpointing=v
          (conv): ADE20KResNet18Layer0(
            (conv): Sequential(
              (0): Sequential(
                (0): Conv2d(3, 64, kernel_size=(3, 3), stride=(2, 2), padding=(1, 1), bias=False)
                (1): SynchronizedBatchNorm2d(64, eps=1e-05, momentum=0.001, affine=True, track_running_stats=True)
                (2): ReLU(inplace=True)
                (3): Conv2d(64, 64, kernel_size=(3, 3), stride=(1, 1), padding=(1, 1), bias=False)
                (4): SynchronizedBatchNorm2d(64, eps=1e-05, momentum=0.001, affine=True, track_running_stats=True)
                (5): ReLU(inplace=True)
                (6): Conv2d(64, 128, kernel_size=(3, 3), stride=(1, 1), padding=(1, 1), bias=False)
                (7): SynchronizedBatchNorm2d(128, eps=1e-05, momentum=0.001, affine=True, track_running_stats=True)
                (8): ReLU(inplace=True)
                (9): MaxPool2d(kernel_size=3, stride=2, padding=1, dilation=1, ceil_mode=False)
              )
            )
          )
          (atomic_pool): BimodalCSRPool()
          (view_pool): GroupBimodalCSRPool(
            num_groups=4
            use_mod=False
            group_scaling=True
            save_last=False
            (E_map): DeepSetFeat(
              pool=['max']
              fusion=concatenation
              use_num=True
              (mlp_elt_1): Sequential(
                (0): Sequential(
                  (0): Linear(in_features=8, out_features=32, bias=False)
                  (1): FastBatchNorm1d(
                    (batch_norm): BatchNorm1d(32, eps=1e-05, momentum=0.02, affine=True, track_running_stats=True)
                  )
                  (2): LeakyReLU(negative_slope=0.2, inplace=True)
                )
                (1): Sequential(
                  (0): Linear(in_features=32, out_features=32, bias=False)
                  (1): FastBatchNorm1d(
                    (batch_norm): BatchNorm1d(32, eps=1e-05, momentum=0.02, affine=True, track_running_stats=True)
                  )
                  (2): LeakyReLU(negative_slope=0.2, inplace=True)
                )
              )
              (mlp_set): Sequential(
                (0): Sequential(
                  (0): Linear(in_features=33, out_features=32, bias=False)
                  (1): FastBatchNorm1d(
                    (batch_norm): BatchNorm1d(32, eps=1e-05, momentum=0.02, affine=True, track_running_stats=True)
                  )
                  (2): LeakyReLU(negative_slope=0.2, inplace=True)
                )
                (1): Sequential(
                  (0): Linear(in_features=32, out_features=32, bias=False)
                  (1): FastBatchNorm1d(
                    (batch_norm): BatchNorm1d(32, eps=1e-05, momentum=0.02, affine=True, track_running_stats=True)
                  )
                  (2): LeakyReLU(negative_slope=0.2, inplace=True)
                )
              )
              (mlp_elt_2): Sequential(
                (0): Sequential(
                  (0): Linear(in_features=64, out_features=32, bias=False)
                  (1): FastBatchNorm1d(
                    (batch_norm): BatchNorm1d(32, eps=1e-05, momentum=0.02, affine=True, track_running_stats=True)
                  )
                  (2): LeakyReLU(negative_slope=0.2, inplace=True)
                )
                (1): Sequential(
                  (0): Linear(in_features=32, out_features=32, bias=False)
                  (1): FastBatchNorm1d(
                    (batch_norm): BatchNorm1d(32, eps=1e-05, momentum=0.02, affine=True, track_running_stats=True)
                  )
                  (2): LeakyReLU(negative_slope=0.2, inplace=True)
                )
              )
            )
            (E_mod): Sequential(
              (0): Sequential(
                (0): Linear(in_features=128, out_features=32, bias=False)
                (1): FastBatchNorm1d(
                  (batch_norm): BatchNorm1d(32, eps=1e-05, momentum=0.02, affine=True, track_running_stats=True)
                )
                (2): LeakyReLU(negative_slope=0.2, inplace=True)
              )
              (1): Sequential(
                (0): Linear(in_features=32, out_features=32, bias=False)
                (1): FastBatchNorm1d(
                  (batch_norm): BatchNorm1d(32, eps=1e-05, momentum=0.02, affine=True, track_running_stats=True)
                )
                (2): LeakyReLU(negative_slope=0.2, inplace=True)
              )
            )
            (E_score): Linear(in_features=32, out_features=4, bias=True)
            (G): Gating(num_groups=4, weight=True, bias=True)
          )
          (fusion): BimodalFusion(mode=concatenation)
        )
      )
      (1): MultimodalBlockDown(
        (block_1): Identity()
        (block_2): Identity()
        (image): UnimodalBranch(
          drop_3d=None
          drop_mod=None
          keep_last_view=False
          checkpointing=v
          (conv): ADE20KResNet18Layer1(
            (conv): Sequential(
              (0): Sequential(
                (0): BasicBlock(
                  (conv1): Conv2d(128, 64, kernel_size=(3, 3), stride=(1, 1), padding=(1, 1), bias=False)
                  (bn1): SynchronizedBatchNorm2d(64, eps=1e-05, momentum=0.001, affine=True, track_running_stats=True)
                  (relu): ReLU(inplace=True)
                  (conv2): Conv2d(64, 64, kernel_size=(3, 3), stride=(1, 1), padding=(1, 1), bias=False)
                  (bn2): SynchronizedBatchNorm2d(64, eps=1e-05, momentum=0.001, affine=True, track_running_stats=True)
                  (downsample): Sequential(
                    (0): Conv2d(128, 64, kernel_size=(1, 1), stride=(1, 1), bias=False)
                    (1): SynchronizedBatchNorm2d(64, eps=1e-05, momentum=0.001, affine=True, track_running_stats=True)
                  )
                )
                (1): BasicBlock(
                  (conv1): Conv2d(64, 64, kernel_size=(3, 3), stride=(1, 1), padding=(1, 1), bias=False)
                  (bn1): SynchronizedBatchNorm2d(64, eps=1e-05, momentum=0.001, affine=True, track_running_stats=True)
                  (relu): ReLU(inplace=True)
                  (conv2): Conv2d(64, 64, kernel_size=(3, 3), stride=(1, 1), padding=(1, 1), bias=False)
                  (bn2): SynchronizedBatchNorm2d(64, eps=1e-05, momentum=0.001, affine=True, track_running_stats=True)
                )
              )
            )
          )
          (atomic_pool): BimodalCSRPool()
          (view_pool): GroupBimodalCSRPool(
            num_groups=4
            use_mod=False
            group_scaling=True
            save_last=False
            (E_map): DeepSetFeat(
              pool=['max']
              fusion=concatenation
              use_num=True
              (mlp_elt_1): Sequential(
                (0): Sequential(
                  (0): Linear(in_features=8, out_features=32, bias=False)
                  (1): FastBatchNorm1d(
                    (batch_norm): BatchNorm1d(32, eps=1e-05, momentum=0.02, affine=True, track_running_stats=True)
                  )
                  (2): LeakyReLU(negative_slope=0.2, inplace=True)
                )
                (1): Sequential(
                  (0): Linear(in_features=32, out_features=32, bias=False)
                  (1): FastBatchNorm1d(
                    (batch_norm): BatchNorm1d(32, eps=1e-05, momentum=0.02, affine=True, track_running_stats=True)
                  )
                  (2): LeakyReLU(negative_slope=0.2, inplace=True)
                )
              )
              (mlp_set): Sequential(
                (0): Sequential(
                  (0): Linear(in_features=33, out_features=32, bias=False)
                  (1): FastBatchNorm1d(
                    (batch_norm): BatchNorm1d(32, eps=1e-05, momentum=0.02, affine=True, track_running_stats=True)
                  )
                  (2): LeakyReLU(negative_slope=0.2, inplace=True)
                )
                (1): Sequential(
                  (0): Linear(in_features=32, out_features=32, bias=False)
                  (1): FastBatchNorm1d(
                    (batch_norm): BatchNorm1d(32, eps=1e-05, momentum=0.02, affine=True, track_running_stats=True)
                  )
                  (2): LeakyReLU(negative_slope=0.2, inplace=True)
                )
              )
              (mlp_elt_2): Sequential(
                (0): Sequential(
                  (0): Linear(in_features=64, out_features=32, bias=False)
                  (1): FastBatchNorm1d(
                    (batch_norm): BatchNorm1d(32, eps=1e-05, momentum=0.02, affine=True, track_running_stats=True)
                  )
                  (2): LeakyReLU(negative_slope=0.2, inplace=True)
                )
                (1): Sequential(
                  (0): Linear(in_features=32, out_features=32, bias=False)
                  (1): FastBatchNorm1d(
                    (batch_norm): BatchNorm1d(32, eps=1e-05, momentum=0.02, affine=True, track_running_stats=True)
                  )
                  (2): LeakyReLU(negative_slope=0.2, inplace=True)
                )
              )
            )
            (E_mod): Sequential(
              (0): Sequential(
                (0): Linear(in_features=64, out_features=32, bias=False)
                (1): FastBatchNorm1d(
                  (batch_norm): BatchNorm1d(32, eps=1e-05, momentum=0.02, affine=True, track_running_stats=True)
                )
                (2): LeakyReLU(negative_slope=0.2, inplace=True)
              )
              (1): Sequential(
                (0): Linear(in_features=32, out_features=32, bias=False)
                (1): FastBatchNorm1d(
                  (batch_norm): BatchNorm1d(32, eps=1e-05, momentum=0.02, affine=True, track_running_stats=True)
                )
                (2): LeakyReLU(negative_slope=0.2, inplace=True)
              )
            )
            (E_score): Linear(in_features=32, out_features=4, bias=True)
            (G): Gating(num_groups=4, weight=True, bias=True)
          )
          (fusion): BimodalFusion(mode=concatenation)
        )
      )
      (2): MultimodalBlockDown(
        (block_1): Identity()
        (block_2): Identity()
        (image): UnimodalBranch(
          drop_3d=None
          drop_mod=None
          keep_last_view=False
          checkpointing=v
          (conv): ADE20KResNet18Layer2(
            (conv): Sequential(
              (0): Sequential(
                (0): BasicBlock(
                  (conv1): Conv2d(64, 128, kernel_size=(3, 3), stride=(2, 2), padding=(1, 1), bias=False)
                  (bn1): SynchronizedBatchNorm2d(128, eps=1e-05, momentum=0.001, affine=True, track_running_stats=True)
                  (relu): ReLU(inplace=True)
                  (conv2): Conv2d(128, 128, kernel_size=(3, 3), stride=(1, 1), padding=(1, 1), bias=False)
                  (bn2): SynchronizedBatchNorm2d(128, eps=1e-05, momentum=0.001, affine=True, track_running_stats=True)
                  (downsample): Sequential(
                    (0): Conv2d(64, 128, kernel_size=(1, 1), stride=(2, 2), bias=False)
                    (1): SynchronizedBatchNorm2d(128, eps=1e-05, momentum=0.001, affine=True, track_running_stats=True)
                  )
                )
                (1): BasicBlock(
                  (conv1): Conv2d(128, 128, kernel_size=(3, 3), stride=(1, 1), padding=(1, 1), bias=False)
                  (bn1): SynchronizedBatchNorm2d(128, eps=1e-05, momentum=0.001, affine=True, track_running_stats=True)
                  (relu): ReLU(inplace=True)
                  (conv2): Conv2d(128, 128, kernel_size=(3, 3), stride=(1, 1), padding=(1, 1), bias=False)
                  (bn2): SynchronizedBatchNorm2d(128, eps=1e-05, momentum=0.001, affine=True, track_running_stats=True)
                )
              )
            )
          )
          (atomic_pool): BimodalCSRPool()
          (view_pool): GroupBimodalCSRPool(
            num_groups=4
            use_mod=False
            group_scaling=True
            save_last=False
            (E_map): DeepSetFeat(
              pool=['max']
              fusion=concatenation
              use_num=True
              (mlp_elt_1): Sequential(
                (0): Sequential(
                  (0): Linear(in_features=8, out_features=32, bias=False)
                  (1): FastBatchNorm1d(
                    (batch_norm): BatchNorm1d(32, eps=1e-05, momentum=0.02, affine=True, track_running_stats=True)
                  )
                  (2): LeakyReLU(negative_slope=0.2, inplace=True)
                )
                (1): Sequential(
                  (0): Linear(in_features=32, out_features=32, bias=False)
                  (1): FastBatchNorm1d(
                    (batch_norm): BatchNorm1d(32, eps=1e-05, momentum=0.02, affine=True, track_running_stats=True)
                  )
                  (2): LeakyReLU(negative_slope=0.2, inplace=True)
                )
              )
              (mlp_set): Sequential(
                (0): Sequential(
                  (0): Linear(in_features=33, out_features=32, bias=False)
                  (1): FastBatchNorm1d(
                    (batch_norm): BatchNorm1d(32, eps=1e-05, momentum=0.02, affine=True, track_running_stats=True)
                  )
                  (2): LeakyReLU(negative_slope=0.2, inplace=True)
                )
                (1): Sequential(
                  (0): Linear(in_features=32, out_features=32, bias=False)
                  (1): FastBatchNorm1d(
                    (batch_norm): BatchNorm1d(32, eps=1e-05, momentum=0.02, affine=True, track_running_stats=True)
                  )
                  (2): LeakyReLU(negative_slope=0.2, inplace=True)
                )
              )
              (mlp_elt_2): Sequential(
                (0): Sequential(
                  (0): Linear(in_features=64, out_features=32, bias=False)
                  (1): FastBatchNorm1d(
                    (batch_norm): BatchNorm1d(32, eps=1e-05, momentum=0.02, affine=True, track_running_stats=True)
                  )
                  (2): LeakyReLU(negative_slope=0.2, inplace=True)
                )
                (1): Sequential(
                  (0): Linear(in_features=32, out_features=32, bias=False)
                  (1): FastBatchNorm1d(
                    (batch_norm): BatchNorm1d(32, eps=1e-05, momentum=0.02, affine=True, track_running_stats=True)
                  )
                  (2): LeakyReLU(negative_slope=0.2, inplace=True)
                )
              )
            )
            (E_mod): Sequential(
              (0): Sequential(
                (0): Linear(in_features=128, out_features=64, bias=False)
                (1): FastBatchNorm1d(
                  (batch_norm): BatchNorm1d(64, eps=1e-05, momentum=0.02, affine=True, track_running_stats=True)
                )
                (2): LeakyReLU(negative_slope=0.2, inplace=True)
              )
              (1): Sequential(
                (0): Linear(in_features=64, out_features=64, bias=False)
                (1): FastBatchNorm1d(
                  (batch_norm): BatchNorm1d(64, eps=1e-05, momentum=0.02, affine=True, track_running_stats=True)
                )
                (2): LeakyReLU(negative_slope=0.2, inplace=True)
              )
            )
            (E_score): Linear(in_features=32, out_features=4, bias=True)
            (G): Gating(num_groups=4, weight=True, bias=True)
          )
          (fusion): BimodalFusion(mode=concatenation)
        )
      )
      (3): MultimodalBlockDown(
        (block_1): Identity()
        (block_2): Identity()
        (image): UnimodalBranch(
          drop_3d=None
          drop_mod=None
          keep_last_view=False
          checkpointing=v
          (conv): ADE20KResNet18Layer3(
            (conv): Sequential(
              (0): Sequential(
                (0): BasicBlock(
                  (conv1): Conv2d(128, 256, kernel_size=(3, 3), stride=(1, 1), padding=(1, 1), bias=False)
                  (bn1): SynchronizedBatchNorm2d(256, eps=1e-05, momentum=0.001, affine=True, track_running_stats=True)
                  (relu): ReLU(inplace=True)
                  (conv2): Conv2d(256, 256, kernel_size=(3, 3), stride=(1, 1), padding=(2, 2), dilation=(2, 2), bias=False)
                  (bn2): SynchronizedBatchNorm2d(256, eps=1e-05, momentum=0.001, affine=True, track_running_stats=True)
                  (downsample): Sequential(
                    (0): Conv2d(128, 256, kernel_size=(1, 1), stride=(1, 1), bias=False)
                    (1): SynchronizedBatchNorm2d(256, eps=1e-05, momentum=0.001, affine=True, track_running_stats=True)
                  )
                )
                (1): BasicBlock(
                  (conv1): Conv2d(256, 256, kernel_size=(3, 3), stride=(1, 1), padding=(2, 2), dilation=(2, 2), bias=False)
                  (bn1): SynchronizedBatchNorm2d(256, eps=1e-05, momentum=0.001, affine=True, track_running_stats=True)
                  (relu): ReLU(inplace=True)
                  (conv2): Conv2d(256, 256, kernel_size=(3, 3), stride=(1, 1), padding=(2, 2), dilation=(2, 2), bias=False)
                  (bn2): SynchronizedBatchNorm2d(256, eps=1e-05, momentum=0.001, affine=True, track_running_stats=True)
                )
              )
            )
          )
          (atomic_pool): BimodalCSRPool()
          (view_pool): GroupBimodalCSRPool(
            num_groups=4
            use_mod=False
            group_scaling=True
            save_last=False
            (E_map): DeepSetFeat(
              pool=['max']
              fusion=concatenation
              use_num=True
              (mlp_elt_1): Sequential(
                (0): Sequential(
                  (0): Linear(in_features=8, out_features=32, bias=False)
                  (1): FastBatchNorm1d(
                    (batch_norm): BatchNorm1d(32, eps=1e-05, momentum=0.02, affine=True, track_running_stats=True)
                  )
                  (2): LeakyReLU(negative_slope=0.2, inplace=True)
                )
                (1): Sequential(
                  (0): Linear(in_features=32, out_features=32, bias=False)
                  (1): FastBatchNorm1d(
                    (batch_norm): BatchNorm1d(32, eps=1e-05, momentum=0.02, affine=True, track_running_stats=True)
                  )
                  (2): LeakyReLU(negative_slope=0.2, inplace=True)
                )
              )
              (mlp_set): Sequential(
                (0): Sequential(
                  (0): Linear(in_features=33, out_features=32, bias=False)
                  (1): FastBatchNorm1d(
                    (batch_norm): BatchNorm1d(32, eps=1e-05, momentum=0.02, affine=True, track_running_stats=True)
                  )
                  (2): LeakyReLU(negative_slope=0.2, inplace=True)
                )
                (1): Sequential(
                  (0): Linear(in_features=32, out_features=32, bias=False)
                  (1): FastBatchNorm1d(
                    (batch_norm): BatchNorm1d(32, eps=1e-05, momentum=0.02, affine=True, track_running_stats=True)
                  )
                  (2): LeakyReLU(negative_slope=0.2, inplace=True)
                )
              )
              (mlp_elt_2): Sequential(
                (0): Sequential(
                  (0): Linear(in_features=64, out_features=32, bias=False)
                  (1): FastBatchNorm1d(
                    (batch_norm): BatchNorm1d(32, eps=1e-05, momentum=0.02, affine=True, track_running_stats=True)
                  )
                  (2): LeakyReLU(negative_slope=0.2, inplace=True)
                )
                (1): Sequential(
                  (0): Linear(in_features=32, out_features=32, bias=False)
                  (1): FastBatchNorm1d(
                    (batch_norm): BatchNorm1d(32, eps=1e-05, momentum=0.02, affine=True, track_running_stats=True)
                  )
                  (2): LeakyReLU(negative_slope=0.2, inplace=True)
                )
              )
            )
            (E_mod): Sequential(
              (0): Sequential(
                (0): Linear(in_features=256, out_features=128, bias=False)
                (1): FastBatchNorm1d(
                  (batch_norm): BatchNorm1d(128, eps=1e-05, momentum=0.02, affine=True, track_running_stats=True)
                )
                (2): LeakyReLU(negative_slope=0.2, inplace=True)
              )
              (1): Sequential(
                (0): Linear(in_features=128, out_features=128, bias=False)
                (1): FastBatchNorm1d(
                  (batch_norm): BatchNorm1d(128, eps=1e-05, momentum=0.02, affine=True, track_running_stats=True)
                )
                (2): LeakyReLU(negative_slope=0.2, inplace=True)
              )
            )
            (E_score): Linear(in_features=32, out_features=4, bias=True)
            (G): Gating(num_groups=4, weight=True, bias=True)
          )
          (fusion): BimodalFusion(mode=concatenation)
        )
      )
      (4): MultimodalBlockDown(
        (block_1): Identity()
        (block_2): Identity()
        (image): UnimodalBranch(
          drop_3d=None
          drop_mod=None
          keep_last_view=False
          checkpointing=v
          (conv): ADE20KResNet18Layer4(
            (conv): Sequential(
              (0): Sequential(
                (0): BasicBlock(
                  (conv1): Conv2d(256, 512, kernel_size=(3, 3), stride=(1, 1), padding=(2, 2), dilation=(2, 2), bias=False)
                  (bn1): SynchronizedBatchNorm2d(512, eps=1e-05, momentum=0.001, affine=True, track_running_stats=True)
                  (relu): ReLU(inplace=True)
                  (conv2): Conv2d(512, 512, kernel_size=(3, 3), stride=(1, 1), padding=(4, 4), dilation=(4, 4), bias=False)
                  (bn2): SynchronizedBatchNorm2d(512, eps=1e-05, momentum=0.001, affine=True, track_running_stats=True)
                  (downsample): Sequential(
                    (0): Conv2d(256, 512, kernel_size=(1, 1), stride=(1, 1), bias=False)
                    (1): SynchronizedBatchNorm2d(512, eps=1e-05, momentum=0.001, affine=True, track_running_stats=True)
                  )
                )
                (1): BasicBlock(
                  (conv1): Conv2d(512, 512, kernel_size=(3, 3), stride=(1, 1), padding=(4, 4), dilation=(4, 4), bias=False)
                  (bn1): SynchronizedBatchNorm2d(512, eps=1e-05, momentum=0.001, affine=True, track_running_stats=True)
                  (relu): ReLU(inplace=True)
                  (conv2): Conv2d(512, 512, kernel_size=(3, 3), stride=(1, 1), padding=(4, 4), dilation=(4, 4), bias=False)
                  (bn2): SynchronizedBatchNorm2d(512, eps=1e-05, momentum=0.001, affine=True, track_running_stats=True)
                )
              )
            )
          )
          (atomic_pool): BimodalCSRPool()
          (view_pool): GroupBimodalCSRPool(
            num_groups=4
            use_mod=False
            group_scaling=True
            save_last=False
            (E_map): DeepSetFeat(
              pool=['max']
              fusion=concatenation
              use_num=True
              (mlp_elt_1): Sequential(
                (0): Sequential(
                  (0): Linear(in_features=8, out_features=32, bias=False)
                  (1): FastBatchNorm1d(
                    (batch_norm): BatchNorm1d(32, eps=1e-05, momentum=0.02, affine=True, track_running_stats=True)
                  )
                  (2): LeakyReLU(negative_slope=0.2, inplace=True)
                )
                (1): Sequential(
                  (0): Linear(in_features=32, out_features=32, bias=False)
                  (1): FastBatchNorm1d(
                    (batch_norm): BatchNorm1d(32, eps=1e-05, momentum=0.02, affine=True, track_running_stats=True)
                  )
                  (2): LeakyReLU(negative_slope=0.2, inplace=True)
                )
              )
              (mlp_set): Sequential(
                (0): Sequential(
                  (0): Linear(in_features=33, out_features=32, bias=False)
                  (1): FastBatchNorm1d(
                    (batch_norm): BatchNorm1d(32, eps=1e-05, momentum=0.02, affine=True, track_running_stats=True)
                  )
                  (2): LeakyReLU(negative_slope=0.2, inplace=True)
                )
                (1): Sequential(
                  (0): Linear(in_features=32, out_features=32, bias=False)
                  (1): FastBatchNorm1d(
                    (batch_norm): BatchNorm1d(32, eps=1e-05, momentum=0.02, affine=True, track_running_stats=True)
                  )
                  (2): LeakyReLU(negative_slope=0.2, inplace=True)
                )
              )
              (mlp_elt_2): Sequential(
                (0): Sequential(
                  (0): Linear(in_features=64, out_features=32, bias=False)
                  (1): FastBatchNorm1d(
                    (batch_norm): BatchNorm1d(32, eps=1e-05, momentum=0.02, affine=True, track_running_stats=True)
                  )
                  (2): LeakyReLU(negative_slope=0.2, inplace=True)
                )
                (1): Sequential(
                  (0): Linear(in_features=32, out_features=32, bias=False)
                  (1): FastBatchNorm1d(
                    (batch_norm): BatchNorm1d(32, eps=1e-05, momentum=0.02, affine=True, track_running_stats=True)
                  )
                  (2): LeakyReLU(negative_slope=0.2, inplace=True)
                )
              )
            )
            (E_mod): Sequential(
              (0): Sequential(
                (0): Linear(in_features=512, out_features=256, bias=False)
                (1): FastBatchNorm1d(
                  (batch_norm): BatchNorm1d(256, eps=1e-05, momentum=0.02, affine=True, track_running_stats=True)
                )
                (2): LeakyReLU(negative_slope=0.2, inplace=True)
              )
              (1): Sequential(
                (0): Linear(in_features=256, out_features=256, bias=False)
                (1): FastBatchNorm1d(
                  (batch_norm): BatchNorm1d(256, eps=1e-05, momentum=0.02, affine=True, track_running_stats=True)
                )
                (2): LeakyReLU(negative_slope=0.2, inplace=True)
              )
            )
            (E_score): Linear(in_features=32, out_features=4, bias=True)
            (G): Gating(num_groups=4, weight=True, bias=True)
          )
          (fusion): BimodalFusion(mode=concatenation)
        )
      )
      (5): MultimodalBlockDown(
        (block_1): ResNetDown(
          (conv_in): Seq(
            (0): Conv3d(in_channels=513, out_channels=128, kernel_size=3, stride=1, dilation=1)
            (1): BatchNorm(128, eps=1e-05, momentum=0.02, affine=True, track_running_stats=True)
            (2): ReLU(inplace=True)
          )
        )
        (block_2): Identity()
        (image): IdentityBranch()
      )
      (6): MultimodalBlockDown(
        (block_1): ResNetDown(
          (conv_in): Seq(
            (0): Conv3d(in_channels=128, out_channels=128, kernel_size=2, stride=2, dilation=1)
            (1): BatchNorm(128, eps=1e-05, momentum=0.02, affine=True, track_running_stats=True)
            (2): ReLU(inplace=True)
          )
          (blocks): Seq(
            (0): ResBlock(
              (block): Seq(
                (0): Conv3d(in_channels=128, out_channels=32, kernel_size=3, stride=1, dilation=1)
                (1): BatchNorm(32, eps=1e-05, momentum=0.02, affine=True, track_running_stats=True)
                (2): ReLU(inplace=True)
                (3): Conv3d(in_channels=32, out_channels=32, kernel_size=3, stride=1, dilation=1)
                (4): BatchNorm(32, eps=1e-05, momentum=0.02, affine=True, track_running_stats=True)
                (5): ReLU(inplace=True)
              )
              (downsample): Seq(
                (0): Conv3d(in_channels=128, out_channels=32, kernel_size=1, stride=1, dilation=1)
                (1): BatchNorm(32, eps=1e-05, momentum=0.02, affine=True, track_running_stats=True)
              )
            )
            (1): ResBlock(
              (block): Seq(
                (0): Conv3d(in_channels=32, out_channels=32, kernel_size=3, stride=1, dilation=1)
                (1): BatchNorm(32, eps=1e-05, momentum=0.02, affine=True, track_running_stats=True)
                (2): ReLU(inplace=True)
                (3): Conv3d(in_channels=32, out_channels=32, kernel_size=3, stride=1, dilation=1)
                (4): BatchNorm(32, eps=1e-05, momentum=0.02, affine=True, track_running_stats=True)
                (5): ReLU(inplace=True)
              )
            )
          )
        )
        (block_2): Identity()
        (image): IdentityBranch()
      )
      (7): MultimodalBlockDown(
        (block_1): ResNetDown(
          (conv_in): Seq(
            (0): Conv3d(in_channels=32, out_channels=32, kernel_size=2, stride=2, dilation=1)
            (1): BatchNorm(32, eps=1e-05, momentum=0.02, affine=True, track_running_stats=True)
            (2): ReLU(inplace=True)
          )
          (blocks): Seq(
            (0): ResBlock(
              (block): Seq(
                (0): Conv3d(in_channels=32, out_channels=64, kernel_size=3, stride=1, dilation=1)
                (1): BatchNorm(64, eps=1e-05, momentum=0.02, affine=True, track_running_stats=True)
                (2): ReLU(inplace=True)
                (3): Conv3d(in_channels=64, out_channels=64, kernel_size=3, stride=1, dilation=1)
                (4): BatchNorm(64, eps=1e-05, momentum=0.02, affine=True, track_running_stats=True)
                (5): ReLU(inplace=True)
              )
              (downsample): Seq(
                (0): Conv3d(in_channels=32, out_channels=64, kernel_size=1, stride=1, dilation=1)
                (1): BatchNorm(64, eps=1e-05, momentum=0.02, affine=True, track_running_stats=True)
              )
            )
            (1): ResBlock(
              (block): Seq(
                (0): Conv3d(in_channels=64, out_channels=64, kernel_size=3, stride=1, dilation=1)
                (1): BatchNorm(64, eps=1e-05, momentum=0.02, affine=True, track_running_stats=True)
                (2): ReLU(inplace=True)
                (3): Conv3d(in_channels=64, out_channels=64, kernel_size=3, stride=1, dilation=1)
                (4): BatchNorm(64, eps=1e-05, momentum=0.02, affine=True, track_running_stats=True)
                (5): ReLU(inplace=True)
              )
            )
            (2): ResBlock(
              (block): Seq(
                (0): Conv3d(in_channels=64, out_channels=64, kernel_size=3, stride=1, dilation=1)
                (1): BatchNorm(64, eps=1e-05, momentum=0.02, affine=True, track_running_stats=True)
                (2): ReLU(inplace=True)
                (3): Conv3d(in_channels=64, out_channels=64, kernel_size=3, stride=1, dilation=1)
                (4): BatchNorm(64, eps=1e-05, momentum=0.02, affine=True, track_running_stats=True)
                (5): ReLU(inplace=True)
              )
            )
          )
        )
        (block_2): Identity()
        (image): IdentityBranch()
      )
      (8): MultimodalBlockDown(
        (block_1): ResNetDown(
          (conv_in): Seq(
            (0): Conv3d(in_channels=64, out_channels=64, kernel_size=2, stride=2, dilation=1)
            (1): BatchNorm(64, eps=1e-05, momentum=0.02, affine=True, track_running_stats=True)
            (2): ReLU(inplace=True)
          )
          (blocks): Seq(
            (0): ResBlock(
              (block): Seq(
                (0): Conv3d(in_channels=64, out_channels=128, kernel_size=3, stride=1, dilation=1)
                (1): BatchNorm(128, eps=1e-05, momentum=0.02, affine=True, track_running_stats=True)
                (2): ReLU(inplace=True)
                (3): Conv3d(in_channels=128, out_channels=128, kernel_size=3, stride=1, dilation=1)
                (4): BatchNorm(128, eps=1e-05, momentum=0.02, affine=True, track_running_stats=True)
                (5): ReLU(inplace=True)
              )
              (downsample): Seq(
                (0): Conv3d(in_channels=64, out_channels=128, kernel_size=1, stride=1, dilation=1)
                (1): BatchNorm(128, eps=1e-05, momentum=0.02, affine=True, track_running_stats=True)
              )
            )
            (1): ResBlock(
              (block): Seq(
                (0): Conv3d(in_channels=128, out_channels=128, kernel_size=3, stride=1, dilation=1)
                (1): BatchNorm(128, eps=1e-05, momentum=0.02, affine=True, track_running_stats=True)
                (2): ReLU(inplace=True)
                (3): Conv3d(in_channels=128, out_channels=128, kernel_size=3, stride=1, dilation=1)
                (4): BatchNorm(128, eps=1e-05, momentum=0.02, affine=True, track_running_stats=True)
                (5): ReLU(inplace=True)
              )
            )
            (2): ResBlock(
              (block): Seq(
                (0): Conv3d(in_channels=128, out_channels=128, kernel_size=3, stride=1, dilation=1)
                (1): BatchNorm(128, eps=1e-05, momentum=0.02, affine=True, track_running_stats=True)
                (2): ReLU(inplace=True)
                (3): Conv3d(in_channels=128, out_channels=128, kernel_size=3, stride=1, dilation=1)
                (4): BatchNorm(128, eps=1e-05, momentum=0.02, affine=True, track_running_stats=True)
                (5): ReLU(inplace=True)
              )
            )
            (3): ResBlock(
              (block): Seq(
                (0): Conv3d(in_channels=128, out_channels=128, kernel_size=3, stride=1, dilation=1)
                (1): BatchNorm(128, eps=1e-05, momentum=0.02, affine=True, track_running_stats=True)
                (2): ReLU(inplace=True)
                (3): Conv3d(in_channels=128, out_channels=128, kernel_size=3, stride=1, dilation=1)
                (4): BatchNorm(128, eps=1e-05, momentum=0.02, affine=True, track_running_stats=True)
                (5): ReLU(inplace=True)
              )
            )
          )
        )
        (block_2): Identity()
        (image): IdentityBranch()
      )
      (9): MultimodalBlockDown(
        (block_1): ResNetDown(
          (conv_in): Seq(
            (0): Conv3d(in_channels=128, out_channels=128, kernel_size=2, stride=2, dilation=1)
            (1): BatchNorm(128, eps=1e-05, momentum=0.02, affine=True, track_running_stats=True)
            (2): ReLU(inplace=True)
          )
          (blocks): Seq(
            (0): ResBlock(
              (block): Seq(
                (0): Conv3d(in_channels=128, out_channels=256, kernel_size=3, stride=1, dilation=1)
                (1): BatchNorm(256, eps=1e-05, momentum=0.02, affine=True, track_running_stats=True)
                (2): ReLU(inplace=True)
                (3): Conv3d(in_channels=256, out_channels=256, kernel_size=3, stride=1, dilation=1)
                (4): BatchNorm(256, eps=1e-05, momentum=0.02, affine=True, track_running_stats=True)
                (5): ReLU(inplace=True)
              )
              (downsample): Seq(
                (0): Conv3d(in_channels=128, out_channels=256, kernel_size=1, stride=1, dilation=1)
                (1): BatchNorm(256, eps=1e-05, momentum=0.02, affine=True, track_running_stats=True)
              )
            )
            (1): ResBlock(
              (block): Seq(
                (0): Conv3d(in_channels=256, out_channels=256, kernel_size=3, stride=1, dilation=1)
                (1): BatchNorm(256, eps=1e-05, momentum=0.02, affine=True, track_running_stats=True)
                (2): ReLU(inplace=True)
                (3): Conv3d(in_channels=256, out_channels=256, kernel_size=3, stride=1, dilation=1)
                (4): BatchNorm(256, eps=1e-05, momentum=0.02, affine=True, track_running_stats=True)
                (5): ReLU(inplace=True)
              )
            )
            (2): ResBlock(
              (block): Seq(
                (0): Conv3d(in_channels=256, out_channels=256, kernel_size=3, stride=1, dilation=1)
                (1): BatchNorm(256, eps=1e-05, momentum=0.02, affine=True, track_running_stats=True)
                (2): ReLU(inplace=True)
                (3): Conv3d(in_channels=256, out_channels=256, kernel_size=3, stride=1, dilation=1)
                (4): BatchNorm(256, eps=1e-05, momentum=0.02, affine=True, track_running_stats=True)
                (5): ReLU(inplace=True)
              )
            )
            (3): ResBlock(
              (block): Seq(
                (0): Conv3d(in_channels=256, out_channels=256, kernel_size=3, stride=1, dilation=1)
                (1): BatchNorm(256, eps=1e-05, momentum=0.02, affine=True, track_running_stats=True)
                (2): ReLU(inplace=True)
                (3): Conv3d(in_channels=256, out_channels=256, kernel_size=3, stride=1, dilation=1)
                (4): BatchNorm(256, eps=1e-05, momentum=0.02, affine=True, track_running_stats=True)
                (5): ReLU(inplace=True)
              )
            )
            (4): ResBlock(
              (block): Seq(
                (0): Conv3d(in_channels=256, out_channels=256, kernel_size=3, stride=1, dilation=1)
                (1): BatchNorm(256, eps=1e-05, momentum=0.02, affine=True, track_running_stats=True)
                (2): ReLU(inplace=True)
                (3): Conv3d(in_channels=256, out_channels=256, kernel_size=3, stride=1, dilation=1)
                (4): BatchNorm(256, eps=1e-05, momentum=0.02, affine=True, track_running_stats=True)
                (5): ReLU(inplace=True)
              )
            )
            (5): ResBlock(
              (block): Seq(
                (0): Conv3d(in_channels=256, out_channels=256, kernel_size=3, stride=1, dilation=1)
                (1): BatchNorm(256, eps=1e-05, momentum=0.02, affine=True, track_running_stats=True)
                (2): ReLU(inplace=True)
                (3): Conv3d(in_channels=256, out_channels=256, kernel_size=3, stride=1, dilation=1)
                (4): BatchNorm(256, eps=1e-05, momentum=0.02, affine=True, track_running_stats=True)
                (5): ReLU(inplace=True)
              )
            )
          )
        )
        (block_2): Identity()
        (image): IdentityBranch()
      )
    )
    (up_modules): ModuleList(
      (0): ResNetUp(
        (conv_in): Seq(
          (0): Conv3d(in_channels=256, out_channels=256, kernel_size=2, stride=2, dilation=1)
          (1): BatchNorm(256, eps=1e-05, momentum=0.02, affine=True, track_running_stats=True)
          (2): ReLU(inplace=True)
        )
        (blocks): Seq(
          (0): ResBlock(
            (block): Seq(
              (0): Conv3d(in_channels=384, out_channels=128, kernel_size=3, stride=1, dilation=1)
              (1): BatchNorm(128, eps=1e-05, momentum=0.02, affine=True, track_running_stats=True)
              (2): ReLU(inplace=True)
              (3): Conv3d(in_channels=128, out_channels=128, kernel_size=3, stride=1, dilation=1)
              (4): BatchNorm(128, eps=1e-05, momentum=0.02, affine=True, track_running_stats=True)
              (5): ReLU(inplace=True)
            )
            (downsample): Seq(
              (0): Conv3d(in_channels=384, out_channels=128, kernel_size=1, stride=1, dilation=1)
              (1): BatchNorm(128, eps=1e-05, momentum=0.02, affine=True, track_running_stats=True)
            )
          )
        )
      )
      (1): ResNetUp(
        (conv_in): Seq(
          (0): Conv3d(in_channels=128, out_channels=128, kernel_size=2, stride=2, dilation=1)
          (1): BatchNorm(128, eps=1e-05, momentum=0.02, affine=True, track_running_stats=True)
          (2): ReLU(inplace=True)
        )
        (blocks): Seq(
          (0): ResBlock(
            (block): Seq(
              (0): Conv3d(in_channels=192, out_channels=128, kernel_size=3, stride=1, dilation=1)
              (1): BatchNorm(128, eps=1e-05, momentum=0.02, affine=True, track_running_stats=True)
              (2): ReLU(inplace=True)
              (3): Conv3d(in_channels=128, out_channels=128, kernel_size=3, stride=1, dilation=1)
              (4): BatchNorm(128, eps=1e-05, momentum=0.02, affine=True, track_running_stats=True)
              (5): ReLU(inplace=True)
            )
            (downsample): Seq(
              (0): Conv3d(in_channels=192, out_channels=128, kernel_size=1, stride=1, dilation=1)
              (1): BatchNorm(128, eps=1e-05, momentum=0.02, affine=True, track_running_stats=True)
            )
          )
        )
      )
      (2): ResNetUp(
        (conv_in): Seq(
          (0): Conv3d(in_channels=128, out_channels=128, kernel_size=2, stride=2, dilation=1)
          (1): BatchNorm(128, eps=1e-05, momentum=0.02, affine=True, track_running_stats=True)
          (2): ReLU(inplace=True)
        )
        (blocks): Seq(
          (0): ResBlock(
            (block): Seq(
              (0): Conv3d(in_channels=160, out_channels=96, kernel_size=3, stride=1, dilation=1)
              (1): BatchNorm(96, eps=1e-05, momentum=0.02, affine=True, track_running_stats=True)
              (2): ReLU(inplace=True)
              (3): Conv3d(in_channels=96, out_channels=96, kernel_size=3, stride=1, dilation=1)
              (4): BatchNorm(96, eps=1e-05, momentum=0.02, affine=True, track_running_stats=True)
              (5): ReLU(inplace=True)
            )
            (downsample): Seq(
              (0): Conv3d(in_channels=160, out_channels=96, kernel_size=1, stride=1, dilation=1)
              (1): BatchNorm(96, eps=1e-05, momentum=0.02, affine=True, track_running_stats=True)
            )
          )
        )
      )
      (3): ResNetUp(
        (conv_in): Seq(
          (0): Conv3d(in_channels=96, out_channels=96, kernel_size=2, stride=2, dilation=1)
          (1): BatchNorm(96, eps=1e-05, momentum=0.02, affine=True, track_running_stats=True)
          (2): ReLU(inplace=True)
        )
        (blocks): Seq(
          (0): ResBlock(
            (block): Seq(
              (0): Conv3d(in_channels=224, out_channels=96, kernel_size=3, stride=1, dilation=1)
              (1): BatchNorm(96, eps=1e-05, momentum=0.02, affine=True, track_running_stats=True)
              (2): ReLU(inplace=True)
              (3): Conv3d(in_channels=96, out_channels=96, kernel_size=3, stride=1, dilation=1)
              (4): BatchNorm(96, eps=1e-05, momentum=0.02, affine=True, track_running_stats=True)
              (5): ReLU(inplace=True)
            )
            (downsample): Seq(
              (0): Conv3d(in_channels=224, out_channels=96, kernel_size=1, stride=1, dilation=1)
              (1): BatchNorm(96, eps=1e-05, momentum=0.02, affine=True, track_running_stats=True)
            )
          )
        )
      )
      (4): ResNetUp(
        (conv_in): Seq(
          (0): Conv3d(in_channels=96, out_channels=96, kernel_size=3, stride=1, dilation=1)
          (1): BatchNorm(96, eps=1e-05, momentum=0.02, affine=True, track_running_stats=True)
          (2): ReLU(inplace=True)
        )
        (blocks): Seq(
          (0): ResBlock(
            (block): Seq(
              (0): Conv3d(in_channels=96, out_channels=96, kernel_size=3, stride=1, dilation=1)
              (1): BatchNorm(96, eps=1e-05, momentum=0.02, affine=True, track_running_stats=True)
              (2): ReLU(inplace=True)
              (3): Conv3d(in_channels=96, out_channels=96, kernel_size=3, stride=1, dilation=1)
              (4): BatchNorm(96, eps=1e-05, momentum=0.02, affine=True, track_running_stats=True)
              (5): ReLU(inplace=True)
            )
          )
        )
      )
    )
  )
  (head): Sequential(
    (0): Linear(in_features=96, out_features=20, bias=True)
  )
)
[2022-10-16 15:05:19,792][torch_points3d.utils.colors][INFO] - [0;32mOptimizer: SGD (
Parameter Group 0
    dampening: 0.1
    foreach: None
    initial_lr: 0.1
    lr: 0.1
    maximize: False
    momentum: 0.9
    nesterov: False
    weight_decay: 0.0001

Parameter Group 1
    dampening: 0.1
    foreach: None
    initial_lr: 0.1
    lr: 0.1
    maximize: False
…
