…
[2022-10-31 13:38:11,983][torch_points3d.trainer][WARNING] - The model will not be able to be used from pretrained weights without the corresponding dataset. Current properties are {'feature_dimension': 9, 'num_classes': 20}
[2022-10-31 13:38:11,983][torch_points3d.trainer][INFO] - MVFusion_model(
  (backbone): MVFusionEncoder(
    (down_modules): ModuleList(
      (0): MultimodalBlockDown(
        (block_1): Identity()
        (block_2): Identity()
        (image): UnimodalBranchOnlyAtomicPool(
          drop_3d=None
          drop_mod=None
          keep_last_view=False
          checkpointing=
          (atomic_pool): BimodalCSRPool()
        )
      )
    )
    (fusion): DVA_cls_5_fusion_7(
      (fusion): TransformerFusion(
        (input_layer): Linear(in_features=29, out_features=256, bias=True)
        (transformer_layers): ModuleList(
          (0): AttentionBlock(
            (norm_1): LayerNorm((256,), eps=1e-05, elementwise_affine=True)
            (norm_2): LayerNorm((256,), eps=1e-05, elementwise_affine=True)
            (attn): MultiheadAttention(
              (out_proj): NonDynamicallyQuantizableLinear(in_features=256, out_features=256, bias=True)
            )
            (linear): Sequential(
              (0): Linear(in_features=256, out_features=512, bias=True)
              (1): GELU(approximate=none)
              (2): Dropout(p=0.2, inplace=False)
              (3): Linear(in_features=512, out_features=256, bias=True)
              (4): Dropout(p=0.2, inplace=False)
            )
          )
          (1): AttentionBlock(
            (norm_1): LayerNorm((256,), eps=1e-05, elementwise_affine=True)
            (norm_2): LayerNorm((256,), eps=1e-05, elementwise_affine=True)
            (attn): MultiheadAttention(
              (out_proj): NonDynamicallyQuantizableLinear(in_features=256, out_features=256, bias=True)
            )
            (linear): Sequential(
              (0): Linear(in_features=256, out_features=512, bias=True)
              (1): GELU(approximate=none)
              (2): Dropout(p=0.2, inplace=False)
              (3): Linear(in_features=512, out_features=256, bias=True)
              (4): Dropout(p=0.2, inplace=False)
            )
          )
          (2): AttentionBlock(
            (norm_1): LayerNorm((256,), eps=1e-05, elementwise_affine=True)
            (norm_2): LayerNorm((256,), eps=1e-05, elementwise_affine=True)
            (attn): MultiheadAttention(
              (out_proj): NonDynamicallyQuantizableLinear(in_features=256, out_features=256, bias=True)
            )
            (linear): Sequential(
              (0): Linear(in_features=256, out_features=512, bias=True)
              (1): GELU(approximate=none)
              (2): Dropout(p=0.2, inplace=False)
              (3): Linear(in_features=512, out_features=256, bias=True)
              (4): Dropout(p=0.2, inplace=False)
            )
          )
          (3): AttentionBlock(
            (norm_1): LayerNorm((256,), eps=1e-05, elementwise_affine=True)
            (norm_2): LayerNorm((256,), eps=1e-05, elementwise_affine=True)
            (attn): MultiheadAttention(
              (out_proj): NonDynamicallyQuantizableLinear(in_features=256, out_features=256, bias=True)
            )
            (linear): Sequential(
              (0): Linear(in_features=256, out_features=512, bias=True)
              (1): GELU(approximate=none)
              (2): Dropout(p=0.2, inplace=False)
              (3): Linear(in_features=512, out_features=256, bias=True)
              (4): Dropout(p=0.2, inplace=False)
            )
          )
        )
        (dropout): Dropout(p=0.2, inplace=False)
      )
      (downprojection): DownProjection(
        (layer_norm_2): LayerNorm((256,), eps=1e-05, elementwise_affine=True)
        (linear): Linear(in_features=256, out_features=16, bias=True)
      )
      (mlp_head): Sequential(
        (0): Dropout(p=0.0, inplace=False)
        (1): LayerNorm((16,), eps=1e-05, elementwise_affine=True)
        (2): Linear(in_features=16, out_features=32, bias=True)
        (3): Linear(in_features=32, out_features=20, bias=True)
      )
    )
  )
)
[2022-10-31 13:38:11,984][torch_points3d.utils.colors][INFO] - [0;32mOptimizer: SGD (
Parameter Group 0
    dampening: 0.1
    foreach: None
    initial_lr: 0.1
    lr: 0.1
    maximize: False
    momentum: 0.9
    nesterov: False
    weight_decay: 0.0001
)[0m
[2022-10-31 13:38:11,984][torch_points3d.utils.colors][INFO] - [0;32mLearning Rate Scheduler: ExponentialLR({'gamma': 0.9885}, update_scheduler_on=on_epoch)[0m
…
